{"format": "graph-model", "generatedBy": "2.3.1", "convertedBy": "TensorFlow.js Converter v2.7.0", "userDefinedMetadata": {"signature": {"inputs": {"input_tensor:0": {"name": "input_tensor:0", "dtype": "DT_UINT8", "tensorShape": {"dim": [{"size": "1"}, {"size": "-1"}, {"size": "-1"}, {"size": "3"}]}}}, "outputs": {"Identity_2:0": {"name": "Identity_2:0", "dtype": "DT_FLOAT", "tensorShape": {"dim": [{"size": "1"}, {"size": "100"}]}}, "Identity_1:0": {"name": "Identity_1:0", "dtype": "DT_FLOAT", "tensorShape": {"dim": [{"size": "1"}, {"size": "100"}, {"size": "4"}]}}, "Identity_3:0": {"name": "Identity_3:0", "dtype": "DT_FLOAT", "tensorShape": {"dim": [{"size": "1"}, {"size": "100"}, {"size": "2"}]}}, "Identity_7:0": {"name": "Identity_7:0", "dtype": "DT_FLOAT", "tensorShape": {"dim": [{"size": "1"}, {"size": "12804"}, {"size": "2"}]}}, "Identity_5:0": {"name": "Identity_5:0", "dtype": "DT_FLOAT", "tensorShape": {"dim": [{"size": "1"}]}}, "Identity_4:0": {"name": "Identity_4:0", "dtype": "DT_FLOAT", "tensorShape": {"dim": [{"size": "1"}, {"size": "100"}]}}, "Identity_6:0": {"name": "Identity_6:0", "dtype": "DT_FLOAT", "tensorShape": {"dim": [{"size": "1"}, {"size": "12804"}, {"size": "4"}]}}, "Identity:0": {"name": "Identity:0", "dtype": "DT_FLOAT", "tensorShape": {"dim": [{"size": "1"}, {"size": "100"}]}}}}}, "modelTopology": {"node": [{"name": "StatefulPartitionedCall/Postprocessor/BatchMultiClassNonMaxSuppression/PadOrClipBoxList/zeros_7", "op": "Const", "attr": {"value": {"tensor": {"dtype": "DT_INT32", "tensorShape": {"dim": [{"size": "1"}]}}}, "dtype": {"type": "DT_INT32"}}}, {"name": "StatefulPartitionedCall/Postprocessor/BatchMultiClassNonMaxSuppression/PadOrClipBoxList/sub_13/x", "op": "Const", "attr": {"value": {"tensor": {"dtype": "DT_INT32", "tensorShape": {}}}, "dtype": {"type": "DT_INT32"}}}, {"name": "StatefulPartitionedCall/Postprocessor/BatchMultiClassNonMaxSuppression/PadOrClipBoxList/zeros_6", "op": "Const", "attr": {"value": {"tensor": {"dtype": "DT_INT32", "tensorShape": {"dim": [{"size": "1"}]}}}, "dtype": {"type": "DT_INT32"}}}, {"name": "StatefulPartitionedCall/Postprocessor/BatchMultiClassNonMaxSuppression/Reshape_3", "op": "Const", "attr": {"value": {"tensor": {"dtype": "DT_FLOAT", "tensorShape": {"dim": [{"size": "12804"}]}}}, "dtype": {"type": "DT_FLOAT"}}}, {"name": "StatefulPartitionedCall/Postprocessor/BatchMultiClassNonMaxSuppression/MultiClassNonMaxSuppression/Gather/GatherV2_3/axis", "op": "Const", "attr": {"value": {"tensor": {"dtype": "DT_INT32", "tensorShape": {}}}, "dtype": {"type": "DT_INT32"}}}, {"name": "StatefulPartitionedCall/Postprocessor/BatchMultiClassNonMaxSuppression/MultiClassNonMaxSuppression/SortByField/Gather/GatherV2_3/axis", "op": "Const", "attr": {"value": {"tensor": {"dtype": "DT_INT32", "tensorShape": {}}}, "dtype": {"type": "DT_INT32"}}}, {"name": "StatefulPartitionedCall/Postprocessor/BatchMultiClassNonMaxSuppression/MultiClassNonMaxSuppression/ClipToWindow/Gather/GatherV2_3/axis", "op": "Const", "attr": {"value": {"tensor": {"dtype": "DT_INT32", "tensorShape": {}}}, "dtype": {"type": "DT_INT32"}}}, {"name": "StatefulPartitionedCall/Postprocessor/BatchMultiClassNonMaxSuppression/MultiClassNonMaxSuppression/SortByField_1/Gather/GatherV2_3/axis", "op": "Const", "attr": {"dtype": {"type": "DT_INT32"}, "value": {"tensor": {"dtype": "DT_INT32", "tensorShape": {}}}}}, {"name": "StatefulPartitionedCall/Postprocessor/BatchMultiClassNonMaxSuppression/MultiClassNonMaxSuppression/Gather_1/GatherV2_3/axis", "op": "Const", "attr": {"value": {"tensor": {"dtype": "DT_INT32", "tensorShape": {}}}, "dtype": {"type": "DT_INT32"}}}, {"name": "StatefulPartitionedCall/Postprocessor/BatchMultiClassNonMaxSuppression/MultiClassNonMaxSuppression/Gather_2/GatherV2_3/axis", "op": "Const", "attr": {"value": {"tensor": {"dtype": "DT_INT32", "tensorShape": {}}}, "dtype": {"type": "DT_INT32"}}}, {"name": "StatefulPartitionedCall/Postprocessor/BatchMultiClassNonMaxSuppression/PadOrClipBoxList/strided_slice_12/stack", "op": "Const", "attr": {"value": {"tensor": {"dtype": "DT_INT32", "tensorShape": {"dim": [{"size": "1"}]}}}, "dtype": {"type": "DT_INT32"}}}, {"name": "StatefulPartitionedCall/Postprocessor/BatchMultiClassNonMaxSuppression/PadOrClipBoxList/strided_slice_12/stack_1", "op": "Const", "attr": {"value": {"tensor": {"dtype": "DT_INT32", "tensorShape": {"dim": [{"size": "1"}]}}}, "dtype": {"type": "DT_INT32"}}}, {"name": "StatefulPartitionedCall/Postprocessor/BatchMultiClassNonMaxSuppression/PadOrClipBoxList/strided_slice_12/stack_2", "op": "Const", "attr": {"value": {"tensor": {"dtype": "DT_INT32", "tensorShape": {"dim": [{"size": "1"}]}}}, "dtype": {"type": "DT_INT32"}}}, {"name": "StatefulPartitionedCall/Postprocessor/BatchMultiClassNonMaxSuppression/PadOrClipBoxList/sub_12/y", "op": "Const", "attr": {"value": {"tensor": {"dtype": "DT_INT32", "tensorShape": {}}}, "dtype": {"type": "DT_INT32"}}}, {"name": "StatefulPartitionedCall/Postprocessor/BatchMultiClassNonMaxSuppression/PadOrClipBoxList/Greater_6/y", "op": "Const", "attr": {"value": {"tensor": {"dtype": "DT_INT32", "tensorShape": {}}}, "dtype": {"type": "DT_INT32"}}}, {"name": "StatefulPartitionedCall/Postprocessor/BatchMultiClassNonMaxSuppression/PadOrClipBoxList/Select_6/t", "op": "Const", "attr": {"dtype": {"type": "DT_INT32"}, "value": {"tensor": {"dtype": "DT_INT32", "tensorShape": {}}}}}, {"name": "StatefulPartitionedCall/Postprocessor/BatchMultiClassNonMaxSuppression/PadOrClipBoxList/Select_6/e", "op": "Const", "attr": {"value": {"tensor": {"dtype": "DT_INT32", "tensorShape": {}}}, "dtype": {"type": "DT_INT32"}}}, {"name": "StatefulPartitionedCall/Postprocessor/BatchMultiClassNonMaxSuppression/PadOrClipBoxList/strided_slice_13/stack", "op": "Const", "attr": {"dtype": {"type": "DT_INT32"}, "value": {"tensor": {"dtype": "DT_INT32", "tensorShape": {"dim": [{"size": "1"}]}}}}}, {"name": "StatefulPartitionedCall/Postprocessor/BatchMultiClassNonMaxSuppression/PadOrClipBoxList/strided_slice_13/stack_1", "op": "Const", "attr": {"dtype": {"type": "DT_INT32"}, "value": {"tensor": {"dtype": "DT_INT32", "tensorShape": {"dim": [{"size": "1"}]}}}}}, {"name": "StatefulPartitionedCall/Postprocessor/BatchMultiClassNonMaxSuppression/PadOrClipBoxList/strided_slice_13/stack_2", "op": "Const", "attr": {"dtype": {"type": "DT_INT32"}, "value": {"tensor": {"dtype": "DT_INT32", "tensorShape": {"dim": [{"size": "1"}]}}}}}, {"name": "StatefulPartitionedCall/Postprocessor/BatchMultiClassNonMaxSuppression/PadOrClipBoxList/zeros_1", "op": "Const", "attr": {"dtype": {"type": "DT_INT32"}, "value": {"tensor": {"dtype": "DT_INT32", "tensorShape": {"dim": [{"size": "2"}]}}}}}, {"name": "StatefulPartitionedCall/Postprocessor/BatchMultiClassNonMaxSuppression/PadOrClipBoxList/sub_2/x", "op": "Const", "attr": {"dtype": {"type": "DT_INT32"}, "value": {"tensor": {"dtype": "DT_INT32", "tensorShape": {}}}}}, {"name": "StatefulPartitionedCall/Postprocessor/BatchMultiClassNonMaxSuppression/PadOrClipBoxList/strided_slice_2/stack", "op": "Const", "attr": {"dtype": {"type": "DT_INT32"}, "value": {"tensor": {"dtype": "DT_INT32", "tensorShape": {"dim": [{"size": "1"}]}}}}}, {"name": "StatefulPartitionedCall/Postprocessor/BatchMultiClassNonMaxSuppression/PadOrClipBoxList/strided_slice_2/stack_1", "op": "Const", "attr": {"dtype": {"type": "DT_INT32"}, "value": {"tensor": {"dtype": "DT_INT32", "tensorShape": {"dim": [{"size": "1"}]}}}}}, {"name": "StatefulPartitionedCall/Postprocessor/BatchMultiClassNonMaxSuppression/PadOrClipBoxList/strided_slice_2/stack_2", "op": "Const", "attr": {"dtype": {"type": "DT_INT32"}, "value": {"tensor": {"dtype": "DT_INT32", "tensorShape": {"dim": [{"size": "1"}]}}}}}, {"name": "StatefulPartitionedCall/Postprocessor/BatchMultiClassNonMaxSuppression/PadOrClipBoxList/sub_3/x", "op": "Const", "attr": {"value": {"tensor": {"dtype": "DT_INT32", "tensorShape": {}}}, "dtype": {"type": "DT_INT32"}}}, {"name": "StatefulPartitionedCall/Postprocessor/BatchMultiClassNonMaxSuppression/PadOrClipBoxList/zeros", "op": "Const", "attr": {"value": {"tensor": {"dtype": "DT_INT32", "tensorShape": {"dim": [{"size": "2"}]}}}, "dtype": {"type": "DT_INT32"}}}, {"name": "StatefulPartitionedCall/Postprocessor/BatchMultiClassNonMaxSuppression/PadOrClipBoxList/strided_slice/stack", "op": "Const", "attr": {"dtype": {"type": "DT_INT32"}, "value": {"tensor": {"dtype": "DT_INT32", "tensorShape": {"dim": [{"size": "1"}]}}}}}, {"name": "StatefulPartitionedCall/Postprocessor/BatchMultiClassNonMaxSuppression/PadOrClipBoxList/strided_slice/stack_1", "op": "Const", "attr": {"value": {"tensor": {"dtype": "DT_INT32", "tensorShape": {"dim": [{"size": "1"}]}}}, "dtype": {"type": "DT_INT32"}}}, {"name": "StatefulPartitionedCall/Postprocessor/BatchMultiClassNonMaxSuppression/PadOrClipBoxList/strided_slice/stack_2", "op": "Const", "attr": {"value": {"tensor": {"dtype": "DT_INT32", "tensorShape": {"dim": [{"size": "1"}]}}}, "dtype": {"type": "DT_INT32"}}}, {"name": "StatefulPartitionedCall/Postprocessor/BatchMultiClassNonMaxSuppression/PadOrClipBoxList/sub/y", "op": "Const", "attr": {"value": {"tensor": {"dtype": "DT_INT32", "tensorShape": {}}}, "dtype": {"type": "DT_INT32"}}}, {"name": "StatefulPartitionedCall/Postprocessor/BatchMultiClassNonMaxSuppression/PadOrClipBoxList/Greater/y", "op": "Const", "attr": {"value": {"tensor": {"dtype": "DT_INT32", "tensorShape": {}}}, "dtype": {"type": "DT_INT32"}}}, {"name": "StatefulPartitionedCall/Postprocessor/BatchMultiClassNonMaxSuppression/PadOrClipBoxList/Select/t", "op": "Const", "attr": {"value": {"tensor": {"dtype": "DT_INT32", "tensorShape": {}}}, "dtype": {"type": "DT_INT32"}}}, {"name": "StatefulPartitionedCall/Postprocessor/BatchMultiClassNonMaxSuppression/PadOrClipBoxList/Select/e", "op": "Const", "attr": {"value": {"tensor": {"dtype": "DT_INT32", "tensorShape": {}}}, "dtype": {"type": "DT_INT32"}}}, {"name": "StatefulPartitionedCall/Postprocessor/BatchMultiClassNonMaxSuppression/MultiClassNonMaxSuppression/Gather_1/GatherV2_6/axis", "op": "Const", "attr": {"value": {"tensor": {"dtype": "DT_INT32", "tensorShape": {}}}, "dtype": {"type": "DT_INT32"}}}, {"name": "StatefulPartitionedCall/Postprocessor/BatchMultiClassNonMaxSuppression/MultiClassNonMaxSuppression/Gather_2/GatherV2_6/axis", "op": "Const", "attr": {"dtype": {"type": "DT_INT32"}, "value": {"tensor": {"dtype": "DT_INT32", "tensorShape": {}}}}}, {"name": "StatefulPartitionedCall/Postprocessor/BatchMultiClassNonMaxSuppression/PadOrClipBoxList/strided_slice_1/stack", "op": "Const", "attr": {"value": {"tensor": {"dtype": "DT_INT32", "tensorShape": {"dim": [{"size": "1"}]}}}, "dtype": {"type": "DT_INT32"}}}, {"name": "StatefulPartitionedCall/Postprocessor/BatchMultiClassNonMaxSuppression/PadOrClipBoxList/strided_slice_1/stack_1", "op": "Const", "attr": {"dtype": {"type": "DT_INT32"}, "value": {"tensor": {"dtype": "DT_INT32", "tensorShape": {"dim": [{"size": "1"}]}}}}}, {"name": "StatefulPartitionedCall/Postprocessor/BatchMultiClassNonMaxSuppression/PadOrClipBoxList/strided_slice_1/stack_2", "op": "Const", "attr": {"dtype": {"type": "DT_INT32"}, "value": {"tensor": {"dtype": "DT_INT32", "tensorShape": {"dim": [{"size": "1"}]}}}}}, {"name": "StatefulPartitionedCall/Postprocessor/BatchMultiClassNonMaxSuppression/PadOrClipBoxList/sub_1/y", "op": "Const", "attr": {"dtype": {"type": "DT_INT32"}, "value": {"tensor": {"dtype": "DT_INT32", "tensorShape": {}}}}}, {"name": "StatefulPartitionedCall/Postprocessor/BatchMultiClassNonMaxSuppression/PadOrClipBoxList/Greater_1/y", "op": "Const", "attr": {"dtype": {"type": "DT_INT32"}, "value": {"tensor": {"dtype": "DT_INT32", "tensorShape": {}}}}}, {"name": "StatefulPartitionedCall/Postprocessor/BatchMultiClassNonMaxSuppression/PadOrClipBoxList/Select_1/t", "op": "Const", "attr": {"dtype": {"type": "DT_INT32"}, "value": {"tensor": {"dtype": "DT_INT32", "tensorShape": {}}}}}, {"name": "StatefulPartitionedCall/Postprocessor/BatchMultiClassNonMaxSuppression/PadOrClipBoxList/Select_1/e", "op": "Const", "attr": {"dtype": {"type": "DT_INT32"}, "value": {"tensor": {"dtype": "DT_INT32", "tensorShape": {}}}}}, {"name": "StatefulPartitionedCall/Postprocessor/BatchMultiClassNonMaxSuppression/PadOrClipBoxList/strided_slice_3/stack", "op": "Const", "attr": {"dtype": {"type": "DT_INT32"}, "value": {"tensor": {"dtype": "DT_INT32", "tensorShape": {"dim": [{"size": "1"}]}}}}}, {"name": "StatefulPartitionedCall/Postprocessor/BatchMultiClassNonMaxSuppression/PadOrClipBoxList/strided_slice_3/stack_1", "op": "Const", "attr": {"dtype": {"type": "DT_INT32"}, "value": {"tensor": {"dtype": "DT_INT32", "tensorShape": {"dim": [{"size": "1"}]}}}}}, {"name": "StatefulPartitionedCall/Postprocessor/BatchMultiClassNonMaxSuppression/PadOrClipBoxList/strided_slice_3/stack_2", "op": "Const", "attr": {"dtype": {"type": "DT_INT32"}, "value": {"tensor": {"dtype": "DT_INT32", "tensorShape": {"dim": [{"size": "1"}]}}}}}, {"name": "StatefulPartitionedCall/Postprocessor/BatchMultiClassNonMaxSuppression/PadOrClipBoxList/zeros_11", "op": "Const", "attr": {"dtype": {"type": "DT_INT32"}, "value": {"tensor": {"dtype": "DT_INT32", "tensorShape": {"dim": [{"size": "1"}]}}}}}, {"name": "StatefulPartitionedCall/Postprocessor/BatchMultiClassNonMaxSuppression/PadOrClipBoxList/sub_19/x", "op": "Const", "attr": {"dtype": {"type": "DT_INT32"}, "value": {"tensor": {"dtype": "DT_INT32", "tensorShape": {}}}}}, {"name": "StatefulPartitionedCall/Postprocessor/BatchMultiClassNonMaxSuppression/PadOrClipBoxList/zeros_10", "op": "Const", "attr": {"dtype": {"type": "DT_INT32"}, "value": {"tensor": {"dtype": "DT_INT32", "tensorShape": {"dim": [{"size": "1"}]}}}}}, {"name": "StatefulPartitionedCall/Postprocessor/BatchMultiClassNonMaxSuppression/MultiClassNonMaxSuppression/add_1", "op": "Const", "attr": {"dtype": {"type": "DT_FLOAT"}, "value": {"tensor": {"dtype": "DT_FLOAT", "tensorShape": {"dim": [{"size": "100"}]}}}}}, {"name": "StatefulPartitionedCall/Postprocessor/BatchMultiClassNonMaxSuppression/MultiClassNonMaxSuppression/SortByField/Gather/GatherV2_5/axis", "op": "Const", "attr": {"dtype": {"type": "DT_INT32"}, "value": {"tensor": {"dtype": "DT_INT32", "tensorShape": {}}}}}, {"name": "StatefulPartitionedCall/Postprocessor/BatchMultiClassNonMaxSuppression/MultiClassNonMaxSuppression/ClipToWindow/Gather/GatherV2_5/axis", "op": "Const", "attr": {"dtype": {"type": "DT_INT32"}, "value": {"tensor": {"dtype": "DT_INT32", "tensorShape": {}}}}}, {"name": "StatefulPartitionedCall/Postprocessor/BatchMultiClassNonMaxSuppression/MultiClassNonMaxSuppression/SortByField_1/Gather/GatherV2_5/axis", "op": "Const", "attr": {"dtype": {"type": "DT_INT32"}, "value": {"tensor": {"dtype": "DT_INT32", "tensorShape": {}}}}}, {"name": "StatefulPartitionedCall/Postprocessor/BatchMultiClassNonMaxSuppression/MultiClassNonMaxSuppression/Gather_1/GatherV2_5/axis", "op": "Const", "attr": {"dtype": {"type": "DT_INT32"}, "value": {"tensor": {"dtype": "DT_INT32", "tensorShape": {}}}}}, {"name": "StatefulPartitionedCall/Postprocessor/BatchMultiClassNonMaxSuppression/MultiClassNonMaxSuppression/Gather_2/GatherV2_5/axis", "op": "Const", "attr": {"dtype": {"type": "DT_INT32"}, "value": {"tensor": {"dtype": "DT_INT32", "tensorShape": {}}}}}, {"name": "StatefulPartitionedCall/Postprocessor/BatchMultiClassNonMaxSuppression/PadOrClipBoxList/strided_slice_18/stack", "op": "Const", "attr": {"dtype": {"type": "DT_INT32"}, "value": {"tensor": {"dtype": "DT_INT32", "tensorShape": {"dim": [{"size": "1"}]}}}}}, {"name": "StatefulPartitionedCall/Postprocessor/BatchMultiClassNonMaxSuppression/PadOrClipBoxList/strided_slice_18/stack_1", "op": "Const", "attr": {"value": {"tensor": {"dtype": "DT_INT32", "tensorShape": {"dim": [{"size": "1"}]}}}, "dtype": {"type": "DT_INT32"}}}, {"name": "StatefulPartitionedCall/Postprocessor/BatchMultiClassNonMaxSuppression/PadOrClipBoxList/strided_slice_18/stack_2", "op": "Const", "attr": {"value": {"tensor": {"dtype": "DT_INT32", "tensorShape": {"dim": [{"size": "1"}]}}}, "dtype": {"type": "DT_INT32"}}}, {"name": "StatefulPartitionedCall/Postprocessor/BatchMultiClassNonMaxSuppression/PadOrClipBoxList/sub_18/y", "op": "Const", "attr": {"value": {"tensor": {"dtype": "DT_INT32", "tensorShape": {}}}, "dtype": {"type": "DT_INT32"}}}, {"name": "StatefulPartitionedCall/Postprocessor/BatchMultiClassNonMaxSuppression/PadOrClipBoxList/Greater_9/y", "op": "Const", "attr": {"dtype": {"type": "DT_INT32"}, "value": {"tensor": {"dtype": "DT_INT32", "tensorShape": {}}}}}, {"name": "StatefulPartitionedCall/Postprocessor/BatchMultiClassNonMaxSuppression/PadOrClipBoxList/Select_9/t", "op": "Const", "attr": {"value": {"tensor": {"dtype": "DT_INT32", "tensorShape": {}}}, "dtype": {"type": "DT_INT32"}}}, {"name": "StatefulPartitionedCall/Postprocessor/BatchMultiClassNonMaxSuppression/PadOrClipBoxList/Select_9/e", "op": "Const", "attr": {"value": {"tensor": {"dtype": "DT_INT32", "tensorShape": {}}}, "dtype": {"type": "DT_INT32"}}}, {"name": "StatefulPartitionedCall/Postprocessor/BatchMultiClassNonMaxSuppression/PadOrClipBoxList/strided_slice_19/stack", "op": "Const", "attr": {"value": {"tensor": {"dtype": "DT_INT32", "tensorShape": {"dim": [{"size": "1"}]}}}, "dtype": {"type": "DT_INT32"}}}, {"name": "StatefulPartitionedCall/Postprocessor/BatchMultiClassNonMaxSuppression/PadOrClipBoxList/strided_slice_19/stack_1", "op": "Const", "attr": {"value": {"tensor": {"dtype": "DT_INT32", "tensorShape": {"dim": [{"size": "1"}]}}}, "dtype": {"type": "DT_INT32"}}}, {"name": "StatefulPartitionedCall/Postprocessor/BatchMultiClassNonMaxSuppression/PadOrClipBoxList/strided_slice_19/stack_2", "op": "Const", "attr": {"value": {"tensor": {"dtype": "DT_INT32", "tensorShape": {"dim": [{"size": "1"}]}}}, "dtype": {"type": "DT_INT32"}}}, {"name": "StatefulPartitionedCall/add/y", "op": "Const", "attr": {"value": {"tensor": {"dtype": "DT_FLOAT", "tensorShape": {}}}, "dtype": {"type": "DT_FLOAT"}}}, {"name": "StatefulPartitionedCall/Postprocessor/BatchMultiClassNonMaxSuppression/PadOrClipBoxList/zeros_9", "op": "Const", "attr": {"value": {"tensor": {"dtype": "DT_INT32", "tensorShape": {"dim": [{"size": "2"}]}}}, "dtype": {"type": "DT_INT32"}}}, {"name": "StatefulPartitionedCall/Postprocessor/BatchMultiClassNonMaxSuppression/PadOrClipBoxList/sub_16/x", "op": "Const", "attr": {"value": {"tensor": {"dtype": "DT_INT32", "tensorShape": {}}}, "dtype": {"type": "DT_INT32"}}}, {"name": "StatefulPartitionedCall/Postprocessor/BatchMultiClassNonMaxSuppression/PadOrClipBoxList/strided_slice_16/stack", "op": "Const", "attr": {"value": {"tensor": {"dtype": "DT_INT32", "tensorShape": {"dim": [{"size": "1"}]}}}, "dtype": {"type": "DT_INT32"}}}, {"name": "StatefulPartitionedCall/Postprocessor/BatchMultiClassNonMaxSuppression/PadOrClipBoxList/strided_slice_16/stack_1", "op": "Const", "attr": {"value": {"tensor": {"dtype": "DT_INT32", "tensorShape": {"dim": [{"size": "1"}]}}}, "dtype": {"type": "DT_INT32"}}}, {"name": "StatefulPartitionedCall/Postprocessor/BatchMultiClassNonMaxSuppression/PadOrClipBoxList/strided_slice_16/stack_2", "op": "Const", "attr": {"value": {"tensor": {"dtype": "DT_INT32", "tensorShape": {"dim": [{"size": "1"}]}}}, "dtype": {"type": "DT_INT32"}}}, {"name": "StatefulPartitionedCall/Postprocessor/BatchMultiClassNonMaxSuppression/PadOrClipBoxList/sub_17/x", "op": "Const", "attr": {"value": {"tensor": {"dtype": "DT_INT32", "tensorShape": {}}}, "dtype": {"type": "DT_INT32"}}}, {"name": "StatefulPartitionedCall/Postprocessor/BatchMultiClassNonMaxSuppression/PadOrClipBoxList/zeros_8", "op": "Const", "attr": {"value": {"tensor": {"dtype": "DT_INT32", "tensorShape": {"dim": [{"size": "2"}]}}}, "dtype": {"type": "DT_INT32"}}}, {"name": "StatefulPartitionedCall/Postprocessor/BatchMultiClassNonMaxSuppression/PadOrClipBoxList/strided_slice_14/stack", "op": "Const", "attr": {"value": {"tensor": {"dtype": "DT_INT32", "tensorShape": {"dim": [{"size": "1"}]}}}, "dtype": {"type": "DT_INT32"}}}, {"name": "StatefulPartitionedCall/Postprocessor/BatchMultiClassNonMaxSuppression/PadOrClipBoxList/strided_slice_14/stack_1", "op": "Const", "attr": {"value": {"tensor": {"dtype": "DT_INT32", "tensorShape": {"dim": [{"size": "1"}]}}}, "dtype": {"type": "DT_INT32"}}}, {"name": "StatefulPartitionedCall/Postprocessor/BatchMultiClassNonMaxSuppression/PadOrClipBoxList/strided_slice_14/stack_2", "op": "Const", "attr": {"value": {"tensor": {"dtype": "DT_INT32", "tensorShape": {"dim": [{"size": "1"}]}}}, "dtype": {"type": "DT_INT32"}}}, {"name": "StatefulPartitionedCall/Postprocessor/BatchMultiClassNonMaxSuppression/PadOrClipBoxList/sub_14/y", "op": "Const", "attr": {"value": {"tensor": {"dtype": "DT_INT32", "tensorShape": {}}}, "dtype": {"type": "DT_INT32"}}}, {"name": "StatefulPartitionedCall/Postprocessor/BatchMultiClassNonMaxSuppression/PadOrClipBoxList/Greater_7/y", "op": "Const", "attr": {"value": {"tensor": {"dtype": "DT_INT32", "tensorShape": {}}}, "dtype": {"type": "DT_INT32"}}}, {"name": "StatefulPartitionedCall/Postprocessor/BatchMultiClassNonMaxSuppression/PadOrClipBoxList/Select_7/t", "op": "Const", "attr": {"value": {"tensor": {"dtype": "DT_INT32", "tensorShape": {}}}, "dtype": {"type": "DT_INT32"}}}, {"name": "StatefulPartitionedCall/Postprocessor/BatchMultiClassNonMaxSuppression/PadOrClipBoxList/Select_7/e", "op": "Const", "attr": {"value": {"tensor": {"dtype": "DT_INT32", "tensorShape": {}}}, "dtype": {"type": "DT_INT32"}}}, {"name": "StatefulPartitionedCall/Postprocessor/BatchMultiClassNonMaxSuppression/MultiClassNonMaxSuppression/Gather/GatherV2_4/axis", "op": "Const", "attr": {"value": {"tensor": {"dtype": "DT_INT32", "tensorShape": {}}}, "dtype": {"type": "DT_INT32"}}}, {"name": "StatefulPartitionedCall/Postprocessor/BatchMultiClassNonMaxSuppression/MultiClassNonMaxSuppression/SortByField/Gather/GatherV2_4/axis", "op": "Const", "attr": {"value": {"tensor": {"dtype": "DT_INT32", "tensorShape": {}}}, "dtype": {"type": "DT_INT32"}}}, {"name": "StatefulPartitionedCall/Postprocessor/BatchMultiClassNonMaxSuppression/MultiClassNonMaxSuppression/ClipToWindow/Gather/GatherV2_4/axis", "op": "Const", "attr": {"dtype": {"type": "DT_INT32"}, "value": {"tensor": {"dtype": "DT_INT32", "tensorShape": {}}}}}, {"name": "StatefulPartitionedCall/Postprocessor/BatchMultiClassNonMaxSuppression/MultiClassNonMaxSuppression/SortByField_1/Gather/GatherV2_4/axis", "op": "Const", "attr": {"dtype": {"type": "DT_INT32"}, "value": {"tensor": {"dtype": "DT_INT32", "tensorShape": {}}}}}, {"name": "StatefulPartitionedCall/Postprocessor/BatchMultiClassNonMaxSuppression/MultiClassNonMaxSuppression/Gather_1/GatherV2_4/axis", "op": "Const", "attr": {"value": {"tensor": {"dtype": "DT_INT32", "tensorShape": {}}}, "dtype": {"type": "DT_INT32"}}}, {"name": "StatefulPartitionedCall/Postprocessor/BatchMultiClassNonMaxSuppression/MultiClassNonMaxSuppression/Gather_2/GatherV2_4/axis", "op": "Const", "attr": {"value": {"tensor": {"dtype": "DT_INT32", "tensorShape": {}}}, "dtype": {"type": "DT_INT32"}}}, {"name": "StatefulPartitionedCall/Postprocessor/BatchMultiClassNonMaxSuppression/PadOrClipBoxList/strided_slice_15/stack", "op": "Const", "attr": {"value": {"tensor": {"dtype": "DT_INT32", "tensorShape": {"dim": [{"size": "1"}]}}}, "dtype": {"type": "DT_INT32"}}}, {"name": "StatefulPartitionedCall/Postprocessor/BatchMultiClassNonMaxSuppression/PadOrClipBoxList/strided_slice_15/stack_1", "op": "Const", "attr": {"value": {"tensor": {"dtype": "DT_INT32", "tensorShape": {"dim": [{"size": "1"}]}}}, "dtype": {"type": "DT_INT32"}}}, {"name": "StatefulPartitionedCall/Postprocessor/BatchMultiClassNonMaxSuppression/PadOrClipBoxList/strided_slice_15/stack_2", "op": "Const", "attr": {"value": {"tensor": {"dtype": "DT_INT32", "tensorShape": {"dim": [{"size": "1"}]}}}, "dtype": {"type": "DT_INT32"}}}, {"name": "StatefulPartitionedCall/Postprocessor/BatchMultiClassNonMaxSuppression/PadOrClipBoxList/sub_15/y", "op": "Const", "attr": {"value": {"tensor": {"dtype": "DT_INT32", "tensorShape": {}}}, "dtype": {"type": "DT_INT32"}}}, {"name": "StatefulPartitionedCall/Postprocessor/BatchMultiClassNonMaxSuppression/PadOrClipBoxList/Greater_8/y", "op": "Const", "attr": {"value": {"tensor": {"dtype": "DT_INT32", "tensorShape": {}}}, "dtype": {"type": "DT_INT32"}}}, {"name": "StatefulPartitionedCall/Postprocessor/BatchMultiClassNonMaxSuppression/PadOrClipBoxList/Select_8/t", "op": "Const", "attr": {"value": {"tensor": {"dtype": "DT_INT32", "tensorShape": {}}}, "dtype": {"type": "DT_INT32"}}}, {"name": "StatefulPartitionedCall/Postprocessor/BatchMultiClassNonMaxSuppression/PadOrClipBoxList/Select_8/e", "op": "Const", "attr": {"value": {"tensor": {"dtype": "DT_INT32", "tensorShape": {}}}, "dtype": {"type": "DT_INT32"}}}, {"name": "StatefulPartitionedCall/Postprocessor/BatchMultiClassNonMaxSuppression/PadOrClipBoxList/strided_slice_17/stack", "op": "Const", "attr": {"value": {"tensor": {"dtype": "DT_INT32", "tensorShape": {"dim": [{"size": "1"}]}}}, "dtype": {"type": "DT_INT32"}}}, {"name": "StatefulPartitionedCall/Postprocessor/BatchMultiClassNonMaxSuppression/PadOrClipBoxList/strided_slice_17/stack_1", "op": "Const", "attr": {"dtype": {"type": "DT_INT32"}, "value": {"tensor": {"dtype": "DT_INT32", "tensorShape": {"dim": [{"size": "1"}]}}}}}, {"name": "StatefulPartitionedCall/Postprocessor/BatchMultiClassNonMaxSuppression/PadOrClipBoxList/strided_slice_17/stack_2", "op": "Const", "attr": {"dtype": {"type": "DT_INT32"}, "value": {"tensor": {"dtype": "DT_INT32", "tensorShape": {"dim": [{"size": "1"}]}}}}}, {"name": "StatefulPartitionedCall/Postprocessor/BatchMultiClassNonMaxSuppression/PadOrClipBoxList/zeros_3", "op": "Const", "attr": {"dtype": {"type": "DT_INT32"}, "value": {"tensor": {"dtype": "DT_INT32", "tensorShape": {"dim": [{"size": "1"}]}}}}}, {"name": "StatefulPartitionedCall/Postprocessor/BatchMultiClassNonMaxSuppression/PadOrClipBoxList/sub_5/x", "op": "Const", "attr": {"dtype": {"type": "DT_INT32"}, "value": {"tensor": {"dtype": "DT_INT32", "tensorShape": {}}}}}, {"name": "StatefulPartitionedCall/Postprocessor/BatchMultiClassNonMaxSuppression/PadOrClipBoxList/zeros_2", "op": "Const", "attr": {"dtype": {"type": "DT_INT32"}, "value": {"tensor": {"dtype": "DT_INT32", "tensorShape": {"dim": [{"size": "1"}]}}}}}, {"name": "StatefulPartitionedCall/Postprocessor/BatchMultiClassNonMaxSuppression/MultiClassNonMaxSuppression/SortByField_1/Gather/GatherV2_1/axis", "op": "Const", "attr": {"dtype": {"type": "DT_INT32"}, "value": {"tensor": {"dtype": "DT_INT32", "tensorShape": {}}}}}, {"name": "StatefulPartitionedCall/Postprocessor/BatchMultiClassNonMaxSuppression/MultiClassNonMaxSuppression/range_1/start", "op": "Const", "attr": {"value": {"tensor": {"dtype": "DT_INT32", "tensorShape": {}}}, "dtype": {"type": "DT_INT32"}}}, {"name": "StatefulPartitionedCall/Postprocessor/BatchMultiClassNonMaxSuppression/MultiClassNonMaxSuppression/range_1/delta", "op": "Const", "attr": {"dtype": {"type": "DT_INT32"}, "value": {"tensor": {"dtype": "DT_INT32", "tensorShape": {}}}}}, {"name": "StatefulPartitionedCall/Postprocessor/BatchMultiClassNonMaxSuppression/MultiClassNonMaxSuppression/Gather_1/GatherV2_1/axis", "op": "Const", "attr": {"value": {"tensor": {"dtype": "DT_INT32", "tensorShape": {}}}, "dtype": {"type": "DT_INT32"}}}, {"name": "StatefulPartitionedCall/Postprocessor/BatchMultiClassNonMaxSuppression/MultiClassNonMaxSuppression/range_2/start", "op": "Const", "attr": {"value": {"tensor": {"dtype": "DT_INT32", "tensorShape": {}}}, "dtype": {"type": "DT_INT32"}}}, {"name": "StatefulPartitionedCall/Postprocessor/BatchMultiClassNonMaxSuppression/MultiClassNonMaxSuppression/range_2/delta", "op": "Const", "attr": {"value": {"tensor": {"dtype": "DT_INT32", "tensorShape": {}}}, "dtype": {"type": "DT_INT32"}}}, {"name": "StatefulPartitionedCall/Postprocessor/BatchMultiClassNonMaxSuppression/MultiClassNonMaxSuppression/Gather_2/GatherV2_1/axis", "op": "Const", "attr": {"value": {"tensor": {"dtype": "DT_INT32", "tensorShape": {}}}, "dtype": {"type": "DT_INT32"}}}, {"name": "StatefulPartitionedCall/Postprocessor/BatchMultiClassNonMaxSuppression/PadOrClipBoxList/strided_slice_4/stack", "op": "Const", "attr": {"value": {"tensor": {"dtype": "DT_INT32", "tensorShape": {"dim": [{"size": "1"}]}}}, "dtype": {"type": "DT_INT32"}}}, {"name": "StatefulPartitionedCall/Postprocessor/BatchMultiClassNonMaxSuppression/PadOrClipBoxList/strided_slice_4/stack_1", "op": "Const", "attr": {"value": {"tensor": {"dtype": "DT_INT32", "tensorShape": {"dim": [{"size": "1"}]}}}, "dtype": {"type": "DT_INT32"}}}, {"name": "StatefulPartitionedCall/Postprocessor/BatchMultiClassNonMaxSuppression/PadOrClipBoxList/strided_slice_4/stack_2", "op": "Const", "attr": {"value": {"tensor": {"dtype": "DT_INT32", "tensorShape": {"dim": [{"size": "1"}]}}}, "dtype": {"type": "DT_INT32"}}}, {"name": "StatefulPartitionedCall/Postprocessor/BatchMultiClassNonMaxSuppression/PadOrClipBoxList/sub_4/y", "op": "Const", "attr": {"value": {"tensor": {"dtype": "DT_INT32", "tensorShape": {}}}, "dtype": {"type": "DT_INT32"}}}, {"name": "StatefulPartitionedCall/Postprocessor/BatchMultiClassNonMaxSuppression/PadOrClipBoxList/Greater_2/y", "op": "Const", "attr": {"value": {"tensor": {"dtype": "DT_INT32", "tensorShape": {}}}, "dtype": {"type": "DT_INT32"}}}, {"name": "StatefulPartitionedCall/Postprocessor/BatchMultiClassNonMaxSuppression/PadOrClipBoxList/Select_2/t", "op": "Const", "attr": {"value": {"tensor": {"dtype": "DT_INT32", "tensorShape": {}}}, "dtype": {"type": "DT_INT32"}}}, {"name": "StatefulPartitionedCall/Postprocessor/BatchMultiClassNonMaxSuppression/PadOrClipBoxList/Select_2/e", "op": "Const", "attr": {"value": {"tensor": {"dtype": "DT_INT32", "tensorShape": {}}}, "dtype": {"type": "DT_INT32"}}}, {"name": "StatefulPartitionedCall/Postprocessor/BatchMultiClassNonMaxSuppression/PadOrClipBoxList/strided_slice_5/stack", "op": "Const", "attr": {"value": {"tensor": {"dtype": "DT_INT32", "tensorShape": {"dim": [{"size": "1"}]}}}, "dtype": {"type": "DT_INT32"}}}, {"name": "StatefulPartitionedCall/Postprocessor/BatchMultiClassNonMaxSuppression/PadOrClipBoxList/strided_slice_5/stack_1", "op": "Const", "attr": {"dtype": {"type": "DT_INT32"}, "value": {"tensor": {"dtype": "DT_INT32", "tensorShape": {"dim": [{"size": "1"}]}}}}}, {"name": "StatefulPartitionedCall/Postprocessor/BatchMultiClassNonMaxSuppression/PadOrClipBoxList/strided_slice_5/stack_2", "op": "Const", "attr": {"dtype": {"type": "DT_INT32"}, "value": {"tensor": {"dtype": "DT_INT32", "tensorShape": {"dim": [{"size": "1"}]}}}}}, {"name": "StatefulPartitionedCall/Postprocessor/BatchMultiClassNonMaxSuppression/MultiClassNonMaxSuppression/GreaterEqual/y", "op": "Const", "attr": {"dtype": {"type": "DT_FLOAT"}, "value": {"tensor": {"dtype": "DT_FLOAT", "tensorShape": {}}}}}, {"name": "StatefulPartitionedCall/Postprocessor/BatchMultiClassNonMaxSuppression/MultiClassNonMaxSuppression/Const_1", "op": "Const", "attr": {"dtype": {"type": "DT_INT32"}, "value": {"tensor": {"dtype": "DT_INT32", "tensorShape": {"dim": [{"size": "1"}]}}}}}, {"name": "StatefulPartitionedCall/Postprocessor/BatchMultiClassNonMaxSuppression/MultiClassNonMaxSuppression/Minimum_1/x", "op": "Const", "attr": {"dtype": {"type": "DT_INT32"}, "value": {"tensor": {"dtype": "DT_INT32", "tensorShape": {}}}}}, {"name": "StatefulPartitionedCall/Postprocessor/BatchMultiClassNonMaxSuppression/MultiClassNonMaxSuppression/ChangeCoordinateFrame/Scale/split/split_dim", "op": "Const", "attr": {"dtype": {"type": "DT_INT32"}, "value": {"tensor": {"dtype": "DT_INT32", "tensorShape": {}}}}}, {"name": "StatefulPartitionedCall/Postprocessor/BatchMultiClassNonMaxSuppression/MultiClassNonMaxSuppression/SortByField_1/Gather/GatherV2_6/axis", "op": "Const", "attr": {"dtype": {"type": "DT_INT32"}, "value": {"tensor": {"dtype": "DT_INT32", "tensorShape": {}}}}}, {"name": "StatefulPartitionedCall/Postprocessor/BatchMultiClassNonMaxSuppression/MultiClassNonMaxSuppression/ChangeCoordinateFrame/Scale/concat/axis", "op": "Const", "attr": {"dtype": {"type": "DT_INT32"}, "value": {"tensor": {"dtype": "DT_INT32", "tensorShape": {}}}}}, {"name": "StatefulPartitionedCall/Postprocessor/BatchMultiClassNonMaxSuppression/MultiClassNonMaxSuppression/strided_slice_4/stack", "op": "Const", "attr": {"dtype": {"type": "DT_INT32"}, "value": {"tensor": {"dtype": "DT_INT32", "tensorShape": {"dim": [{"size": "1"}]}}}}}, {"name": "StatefulPartitionedCall/Postprocessor/BatchMultiClassNonMaxSuppression/MultiClassNonMaxSuppression/strided_slice_4/stack_1", "op": "Const", "attr": {"dtype": {"type": "DT_INT32"}, "value": {"tensor": {"dtype": "DT_INT32", "tensorShape": {"dim": [{"size": "1"}]}}}}}, {"name": "StatefulPartitionedCall/Postprocessor/BatchMultiClassNonMaxSuppression/MultiClassNonMaxSuppression/strided_slice_4/stack_2", "op": "Const", "attr": {"dtype": {"type": "DT_INT32"}, "value": {"tensor": {"dtype": "DT_INT32", "tensorShape": {"dim": [{"size": "1"}]}}}}}, {"name": "StatefulPartitionedCall/Postprocessor/BatchMultiClassNonMaxSuppression/MultiClassNonMaxSuppression/SortByField_1/strided_slice/stack", "op": "Const", "attr": {"value": {"tensor": {"dtype": "DT_INT32", "tensorShape": {"dim": [{"size": "1"}]}}}, "dtype": {"type": "DT_INT32"}}}, {"name": "StatefulPartitionedCall/Postprocessor/BatchMultiClassNonMaxSuppression/MultiClassNonMaxSuppression/SortByField_1/strided_slice/stack_1", "op": "Const", "attr": {"dtype": {"type": "DT_INT32"}, "value": {"tensor": {"dtype": "DT_INT32", "tensorShape": {"dim": [{"size": "1"}]}}}}}, {"name": "StatefulPartitionedCall/Postprocessor/BatchMultiClassNonMaxSuppression/MultiClassNonMaxSuppression/SortByField_1/strided_slice/stack_2", "op": "Const", "attr": {"value": {"tensor": {"dtype": "DT_INT32", "tensorShape": {"dim": [{"size": "1"}]}}}, "dtype": {"type": "DT_INT32"}}}, {"name": "StatefulPartitionedCall/Postprocessor/BatchMultiClassNonMaxSuppression/MultiClassNonMaxSuppression/Area/split/split_dim", "op": "Const", "attr": {"value": {"tensor": {"dtype": "DT_INT32", "tensorShape": {}}}, "dtype": {"type": "DT_INT32"}}}, {"name": "StatefulPartitionedCall/Postprocessor/BatchMultiClassNonMaxSuppression/MultiClassNonMaxSuppression/SortByField/Gather/GatherV2_1/axis", "op": "Const", "attr": {"value": {"tensor": {"dtype": "DT_INT32", "tensorShape": {}}}, "dtype": {"type": "DT_INT32"}}}, {"name": "StatefulPartitionedCall/Postprocessor/BatchMultiClassNonMaxSuppression/MultiClassNonMaxSuppression/ClipToWindow/Gather/GatherV2_1/axis", "op": "Const", "attr": {"value": {"tensor": {"dtype": "DT_INT32", "tensorShape": {}}}, "dtype": {"type": "DT_INT32"}}}, {"name": "StatefulPartitionedCall/Postprocessor/BatchMultiClassNonMaxSuppression/MultiClassNonMaxSuppression/mul_1/x", "op": "Const", "attr": {"value": {"tensor": {"dtype": "DT_FLOAT", "tensorShape": {}}}, "dtype": {"type": "DT_FLOAT"}}}, {"name": "StatefulPartitionedCall/Postprocessor/BatchMultiClassNonMaxSuppression/MultiClassNonMaxSuppression/ClipToWindow/Area/split/split_dim", "op": "Const", "attr": {"value": {"tensor": {"dtype": "DT_INT32", "tensorShape": {}}}, "dtype": {"type": "DT_INT32"}}}, {"name": "StatefulPartitionedCall/Postprocessor/BatchMultiClassNonMaxSuppression/MultiClassNonMaxSuppression/ClipToWindow/strided_slice_2", "op": "Const", "attr": {"value": {"tensor": {"dtype": "DT_FLOAT", "tensorShape": {}}}, "dtype": {"type": "DT_FLOAT"}}}, {"name": "StatefulPartitionedCall/Postprocessor/BatchMultiClassNonMaxSuppression/MultiClassNonMaxSuppression/ClipToWindow/strided_slice", "op": "Const", "attr": {"value": {"tensor": {"dtype": "DT_FLOAT", "tensorShape": {}}}, "dtype": {"type": "DT_FLOAT"}}}, {"name": "StatefulPartitionedCall/Postprocessor/BatchMultiClassNonMaxSuppression/MultiClassNonMaxSuppression/ClipToWindow/split/split_dim", "op": "Const", "attr": {"value": {"tensor": {"dtype": "DT_INT32", "tensorShape": {}}}, "dtype": {"type": "DT_INT32"}}}, {"name": "StatefulPartitionedCall/Postprocessor/BatchMultiClassNonMaxSuppression/MultiClassNonMaxSuppression/range", "op": "Const", "attr": {"value": {"tensor": {"dtype": "DT_INT32", "tensorShape": {"dim": [{"size": "100"}]}}}, "dtype": {"type": "DT_INT32"}}}, {"name": "StatefulPartitionedCall/Postprocessor/BatchMultiClassNonMaxSuppression/MultiClassNonMaxSuppression/zeros_1/Reshape/shape", "op": "Const", "attr": {"dtype": {"type": "DT_INT32"}, "value": {"tensor": {"dtype": "DT_INT32", "tensorShape": {"dim": [{"size": "1"}]}}}}}, {"name": "StatefulPartitionedCall/Postprocessor/BatchMultiClassNonMaxSuppression/MultiClassNonMaxSuppression/zeros_1/Const", "op": "Const", "attr": {"dtype": {"type": "DT_FLOAT"}, "value": {"tensor": {"dtype": "DT_FLOAT", "tensorShape": {}}}}}, {"name": "StatefulPartitionedCall/Postprocessor/BatchMultiClassNonMaxSuppression/MultiClassNonMaxSuppression/concat_1/axis", "op": "Const", "attr": {"dtype": {"type": "DT_INT32"}, "value": {"tensor": {"dtype": "DT_INT32", "tensorShape": {}}}}}, {"name": "StatefulPartitionedCall/Postprocessor/BatchMultiClassNonMaxSuppression/MultiClassNonMaxSuppression/mul", "op": "Const", "attr": {"dtype": {"type": "DT_FLOAT"}, "value": {"tensor": {"dtype": "DT_FLOAT", "tensorShape": {"dim": [{"size": "100"}]}}}}}, {"name": "ConstantFolding/StatefulPartitionedCall/Postprocessor/Decode/truediv_4_recip", "op": "Const", "attr": {"dtype": {"type": "DT_FLOAT"}, "value": {"tensor": {"dtype": "DT_FLOAT", "tensorShape": {}}}}}, {"name": "ConstantFolding/StatefulPartitionedCall/Postprocessor/Decode/truediv_5_recip", "op": "Const", "attr": {"dtype": {"type": "DT_FLOAT"}, "value": {"tensor": {"dtype": "DT_FLOAT", "tensorShape": {}}}}}, {"name": "StatefulPartitionedCall/Postprocessor/Decode/truediv", "op": "Const", "attr": {"dtype": {"type": "DT_FLOAT"}, "value": {"tensor": {"dtype": "DT_FLOAT", "tensorShape": {"dim": [{"size": "12804"}]}}}}}, {"name": "StatefulPartitionedCall/Postprocessor/Decode/get_center_coordinates_and_sizes/add", "op": "Const", "attr": {"dtype": {"type": "DT_FLOAT"}, "value": {"tensor": {"dtype": "DT_FLOAT", "tensorShape": {"dim": [{"size": "12804"}]}}}}}, {"name": "ConstantFolding/StatefulPartitionedCall/Postprocessor/Decode/truediv_2_recip", "op": "Const", "attr": {"dtype": {"type": "DT_FLOAT"}, "value": {"tensor": {"dtype": "DT_FLOAT", "tensorShape": {}}}}}, {"name": "StatefulPartitionedCall/Postprocessor/Decode/get_center_coordinates_and_sizes/sub_1", "op": "Const", "attr": {"dtype": {"type": "DT_FLOAT"}, "value": {"tensor": {"dtype": "DT_FLOAT", "tensorShape": {"dim": [{"size": "12804"}]}}}}}, {"name": "ConstantFolding/StatefulPartitionedCall/Postprocessor/Decode/truediv_6_recip", "op": "Const", "attr": {"value": {"tensor": {"dtype": "DT_FLOAT", "tensorShape": {}}}, "dtype": {"type": "DT_FLOAT"}}}, {"name": "StatefulPartitionedCall/Postprocessor/Decode/truediv_1", "op": "Const", "attr": {"dtype": {"type": "DT_FLOAT"}, "value": {"tensor": {"dtype": "DT_FLOAT", "tensorShape": {"dim": [{"size": "12804"}]}}}}}, {"name": "StatefulPartitionedCall/Postprocessor/Decode/get_center_coordinates_and_sizes/add_1", "op": "Const", "attr": {"value": {"tensor": {"dtype": "DT_FLOAT", "tensorShape": {"dim": [{"size": "12804"}]}}}, "dtype": {"type": "DT_FLOAT"}}}, {"name": "StatefulPartitionedCall/WeightSharedConvolutionalBoxPredictor/WeightSharedConvolutionalBoxHead/Reshape/shape", "op": "Const", "attr": {"value": {"tensor": {"dtype": "DT_INT32", "tensorShape": {"dim": [{"size": "3"}]}}}, "dtype": {"type": "DT_INT32"}}}, {"name": "StatefulPartitionedCall/WeightSharedConvolutionalBoxPredictor/WeightSharedConvolutionalBoxHead/Reshape_1/shape", "op": "Const", "attr": {"value": {"tensor": {"dtype": "DT_INT32", "tensorShape": {"dim": [{"size": "3"}]}}}, "dtype": {"type": "DT_INT32"}}}, {"name": "StatefulPartitionedCall/WeightSharedConvolutionalBoxPredictor/WeightSharedConvolutionalBoxHead/Reshape_2/shape", "op": "Const", "attr": {"value": {"tensor": {"dtype": "DT_INT32", "tensorShape": {"dim": [{"size": "3"}]}}}, "dtype": {"type": "DT_INT32"}}}, {"name": "StatefulPartitionedCall/WeightSharedConvolutionalBoxPredictor/WeightSharedConvolutionalBoxHead/Reshape_3/shape", "op": "Const", "attr": {"value": {"tensor": {"dtype": "DT_INT32", "tensorShape": {"dim": [{"size": "3"}]}}}, "dtype": {"type": "DT_INT32"}}}, {"name": "unknown_328", "op": "Const", "attr": {"value": {"tensor": {"dtype": "DT_FLOAT", "tensorShape": {"dim": [{"size": "3"}, {"size": "3"}, {"size": "128"}, {"size": "1"}]}}}, "dtype": {"type": "DT_FLOAT"}}}, {"name": "unknown_329", "op": "Const", "attr": {"dtype": {"type": "DT_FLOAT"}, "value": {"tensor": {"dtype": "DT_FLOAT", "tensorShape": {"dim": [{"size": "1"}, {"size": "1"}, {"size": "128"}, {"size": "24"}]}}}}}, {"name": "unknown_330", "op": "Const", "attr": {"dtype": {"type": "DT_FLOAT"}, "value": {"tensor": {"dtype": "DT_FLOAT", "tensorShape": {"dim": [{"size": "24"}]}}}}}, {"name": "StatefulPartitionedCall/WeightSharedConvolutionalBoxPredictor/WeightSharedConvolutionalBoxHead/Reshape_4/shape", "op": "Const", "attr": {"dtype": {"type": "DT_INT32"}, "value": {"tensor": {"dtype": "DT_INT32", "tensorShape": {"dim": [{"size": "3"}]}}}}}, {"name": "StatefulPartitionedCall/concat/axis", "op": "Const", "attr": {"dtype": {"type": "DT_INT32"}, "value": {"tensor": {"dtype": "DT_INT32", "tensorShape": {}}}}}, {"name": "StatefulPartitionedCall/Postprocessor/Reshape_1/shape", "op": "Const", "attr": {"dtype": {"type": "DT_INT32"}, "value": {"tensor": {"dtype": "DT_INT32", "tensorShape": {"dim": [{"size": "2"}]}}}}}, {"name": "StatefulPartitionedCall/Postprocessor/Decode/transpose/perm", "op": "Const", "attr": {"dtype": {"type": "DT_INT32"}, "value": {"tensor": {"dtype": "DT_INT32", "tensorShape": {"dim": [{"size": "2"}]}}}}}, {"name": "ConstantFolding/StatefulPartitionedCall/Postprocessor/Decode/truediv_3_recip", "op": "Const", "attr": {"dtype": {"type": "DT_FLOAT"}, "value": {"tensor": {"dtype": "DT_FLOAT", "tensorShape": {}}}}}, {"name": "StatefulPartitionedCall/Postprocessor/Decode/get_center_coordinates_and_sizes/sub", "op": "Const", "attr": {"dtype": {"type": "DT_FLOAT"}, "value": {"tensor": {"dtype": "DT_FLOAT", "tensorShape": {"dim": [{"size": "12804"}]}}}}}, {"name": "ConstantFolding/StatefulPartitionedCall/Postprocessor/Decode/truediv_7_recip", "op": "Const", "attr": {"dtype": {"type": "DT_FLOAT"}, "value": {"tensor": {"dtype": "DT_FLOAT", "tensorShape": {}}}}}, {"name": "StatefulPartitionedCall/Postprocessor/Decode/transpose_1/perm", "op": "Const", "attr": {"dtype": {"type": "DT_INT32"}, "value": {"tensor": {"dtype": "DT_INT32", "tensorShape": {"dim": [{"size": "2"}]}}}}}, {"name": "StatefulPartitionedCall/Postprocessor/stack", "op": "Const", "attr": {"dtype": {"type": "DT_INT32"}, "value": {"tensor": {"dtype": "DT_INT32", "tensorShape": {"dim": [{"size": "3"}]}}}}}, {"name": "StatefulPartitionedCall/Postprocessor/ExpandDims_1/dim", "op": "Const", "attr": {"dtype": {"type": "DT_INT32"}, "value": {"tensor": {"dtype": "DT_INT32", "tensorShape": {}}}}}, {"name": "StatefulPartitionedCall/ssd_mobile_net_v2fpn_keras_feature_extractor/FeatureMaps/top_down/nearest_neighbor_upsampling/nearest_neighbor_upsampling_1/Reshape/shape", "op": "Const", "attr": {"dtype": {"type": "DT_INT32"}, "value": {"tensor": {"dtype": "DT_INT32", "tensorShape": {"dim": [{"size": "4"}]}}}}}, {"name": "unknown_269", "op": "Const", "attr": {"dtype": {"type": "DT_FLOAT"}, "value": {"tensor": {"dtype": "DT_FLOAT", "tensorShape": {"dim": [{"size": "1"}, {"size": "1"}, {"size": "32"}, {"size": "128"}]}}}}}, {"name": "unknown_270", "op": "Const", "attr": {"dtype": {"type": "DT_FLOAT"}, "value": {"tensor": {"dtype": "DT_FLOAT", "tensorShape": {"dim": [{"size": "128"}]}}}}}, {"name": "unknown_271", "op": "Const", "attr": {"dtype": {"type": "DT_FLOAT"}, "value": {"tensor": {"dtype": "DT_FLOAT", "tensorShape": {"dim": [{"size": "3"}, {"size": "3"}, {"size": "128"}, {"size": "1"}]}}}}}, {"name": "StatefulPartitionedCall/WeightSharedConvolutionalBoxPredictor/WeightSharedConvolutionalClassHead/Reshape/shape", "op": "Const", "attr": {"value": {"tensor": {"dtype": "DT_INT32", "tensorShape": {"dim": [{"size": "3"}]}}}, "dtype": {"type": "DT_INT32"}}}, {"name": "StatefulPartitionedCall/ssd_mobile_net_v2fpn_keras_feature_extractor/FeatureMaps/top_down/nearest_neighbor_upsampling/nearest_neighbor_upsampling/Reshape/shape", "op": "Const", "attr": {"dtype": {"type": "DT_INT32"}, "value": {"tensor": {"dtype": "DT_INT32", "tensorShape": {"dim": [{"size": "4"}]}}}}}, {"name": "unknown_261", "op": "Const", "attr": {"dtype": {"type": "DT_FLOAT"}, "value": {"tensor": {"dtype": "DT_FLOAT", "tensorShape": {"dim": [{"size": "1"}, {"size": "1"}, {"size": "96"}, {"size": "128"}]}}}}}, {"name": "unknown_262", "op": "Const", "attr": {"dtype": {"type": "DT_FLOAT"}, "value": {"tensor": {"dtype": "DT_FLOAT", "tensorShape": {"dim": [{"size": "128"}]}}}}}, {"name": "unknown_263", "op": "Const", "attr": {"value": {"tensor": {"dtype": "DT_FLOAT", "tensorShape": {"dim": [{"size": "3"}, {"size": "3"}, {"size": "128"}, {"size": "1"}]}}}, "dtype": {"type": "DT_FLOAT"}}}, {"name": "StatefulPartitionedCall/WeightSharedConvolutionalBoxPredictor/WeightSharedConvolutionalClassHead/Reshape_1/shape", "op": "Const", "attr": {"value": {"tensor": {"dtype": "DT_INT32", "tensorShape": {"dim": [{"size": "3"}]}}}, "dtype": {"type": "DT_INT32"}}}, {"name": "StatefulPartitionedCall/WeightSharedConvolutionalBoxPredictor/WeightSharedConvolutionalClassHead/Reshape_2/shape", "op": "Const", "attr": {"dtype": {"type": "DT_INT32"}, "value": {"tensor": {"dtype": "DT_INT32", "tensorShape": {"dim": [{"size": "3"}]}}}}}, {"name": "StatefulPartitionedCall/WeightSharedConvolutionalBoxPredictor/WeightSharedConvolutionalClassHead/Reshape_3/shape", "op": "Const", "attr": {"dtype": {"type": "DT_INT32"}, "value": {"tensor": {"dtype": "DT_INT32", "tensorShape": {"dim": [{"size": "3"}]}}}}}, {"name": "StatefulPartitionedCall/Preprocessor/mul/x", "op": "Const", "attr": {"value": {"tensor": {"dtype": "DT_FLOAT", "tensorShape": {}}}, "dtype": {"type": "DT_FLOAT"}}}, {"name": "StatefulPartitionedCall/Preprocessor/sub/y", "op": "Const", "attr": {"value": {"tensor": {"dtype": "DT_FLOAT", "tensorShape": {}}}, "dtype": {"type": "DT_FLOAT"}}}, {"name": "StatefulPartitionedCall/Preprocessor/ResizeImage/resize/ExpandDims/dim", "op": "Const", "attr": {"value": {"tensor": {"dtype": "DT_INT32", "tensorShape": {}}}, "dtype": {"type": "DT_INT32"}}}, {"name": "StatefulPartitionedCall/Preprocessor/ResizeImage/stack", "op": "Const", "attr": {"value": {"tensor": {"dtype": "DT_INT32", "tensorShape": {"dim": [{"size": "2"}]}}}, "dtype": {"type": "DT_INT32"}}}, {"name": "unknown_259", "op": "Const", "attr": {"value": {"tensor": {"dtype": "DT_FLOAT", "tensorShape": {"dim": [{"size": "1"}, {"size": "1"}, {"size": "1280"}, {"size": "128"}]}}}, "dtype": {"type": "DT_FLOAT"}}}, {"name": "unknown_260", "op": "Const", "attr": {"value": {"tensor": {"dtype": "DT_FLOAT", "tensorShape": {"dim": [{"size": "128"}]}}}, "dtype": {"type": "DT_FLOAT"}}}, {"name": "unknown_277", "op": "Const", "attr": {"value": {"tensor": {"dtype": "DT_FLOAT", "tensorShape": {"dim": [{"size": "3"}, {"size": "3"}, {"size": "128"}, {"size": "1"}]}}}, "dtype": {"type": "DT_FLOAT"}}}, {"name": "unknown_283", "op": "Const", "attr": {"value": {"tensor": {"dtype": "DT_FLOAT", "tensorShape": {"dim": [{"size": "3"}, {"size": "3"}, {"size": "128"}, {"size": "1"}]}}}, "dtype": {"type": "DT_FLOAT"}}}, {"name": "unknown_304", "op": "Const", "attr": {"value": {"tensor": {"dtype": "DT_FLOAT", "tensorShape": {"dim": [{"size": "3"}, {"size": "3"}, {"size": "128"}, {"size": "1"}]}}}, "dtype": {"type": "DT_FLOAT"}}}, {"name": "unknown_310", "op": "Const", "attr": {"value": {"tensor": {"dtype": "DT_FLOAT", "tensorShape": {"dim": [{"size": "3"}, {"size": "3"}, {"size": "128"}, {"size": "1"}]}}}, "dtype": {"type": "DT_FLOAT"}}}, {"name": "unknown_316", "op": "Const", "attr": {"value": {"tensor": {"dtype": "DT_FLOAT", "tensorShape": {"dim": [{"size": "3"}, {"size": "3"}, {"size": "128"}, {"size": "1"}]}}}, "dtype": {"type": "DT_FLOAT"}}}, {"name": "unknown_322", "op": "Const", "attr": {"value": {"tensor": {"dtype": "DT_FLOAT", "tensorShape": {"dim": [{"size": "3"}, {"size": "3"}, {"size": "128"}, {"size": "1"}]}}}, "dtype": {"type": "DT_FLOAT"}}}, {"name": "unknown_331", "op": "Const", "attr": {"value": {"tensor": {"dtype": "DT_FLOAT", "tensorShape": {"dim": [{"size": "3"}, {"size": "3"}, {"size": "128"}, {"size": "1"}]}}}, "dtype": {"type": "DT_FLOAT"}}}, {"name": "unknown_332", "op": "Const", "attr": {"value": {"tensor": {"dtype": "DT_FLOAT", "tensorShape": {"dim": [{"size": "1"}, {"size": "1"}, {"size": "128"}, {"size": "12"}]}}}, "dtype": {"type": "DT_FLOAT"}}}, {"name": "unknown_333", "op": "Const", "attr": {"value": {"tensor": {"dtype": "DT_FLOAT", "tensorShape": {"dim": [{"size": "12"}]}}}, "dtype": {"type": "DT_FLOAT"}}}, {"name": "StatefulPartitionedCall/WeightSharedConvolutionalBoxPredictor/WeightSharedConvolutionalClassHead/Reshape_4/shape", "op": "Const", "attr": {"value": {"tensor": {"dtype": "DT_INT32", "tensorShape": {"dim": [{"size": "3"}]}}}, "dtype": {"type": "DT_INT32"}}}, {"name": "StatefulPartitionedCall/concat_1/axis", "op": "Const", "attr": {"value": {"tensor": {"dtype": "DT_INT32", "tensorShape": {}}}, "dtype": {"type": "DT_INT32"}}}, {"name": "StatefulPartitionedCall/Postprocessor/Slice/begin", "op": "Const", "attr": {"value": {"tensor": {"dtype": "DT_INT32", "tensorShape": {"dim": [{"size": "3"}]}}}, "dtype": {"type": "DT_INT32"}}}, {"name": "StatefulPartitionedCall/Postprocessor/Slice/size", "op": "Const", "attr": {"value": {"tensor": {"dtype": "DT_INT32", "tensorShape": {"dim": [{"size": "3"}]}}}, "dtype": {"type": "DT_INT32"}}}, {"name": "StatefulPartitionedCall/Postprocessor/BatchMultiClassNonMaxSuppression/MultiClassNonMaxSuppression/Reshape/shape", "op": "Const", "attr": {"value": {"tensor": {"dtype": "DT_INT32", "tensorShape": {"dim": [{"size": "1"}]}}}, "dtype": {"type": "DT_INT32"}}}, {"name": "StatefulPartitionedCall/Postprocessor/BatchMultiClassNonMaxSuppression/MultiClassNonMaxSuppression/Minimum", "op": "Const", "attr": {"value": {"tensor": {"dtype": "DT_INT32", "tensorShape": {}}}, "dtype": {"type": "DT_INT32"}}}, {"name": "StatefulPartitionedCall/Postprocessor/BatchMultiClassNonMaxSuppression/MultiClassNonMaxSuppression/non_max_suppression_with_scores/iou_threshold", "op": "Const", "attr": {"value": {"tensor": {"dtype": "DT_FLOAT", "tensorShape": {}}}, "dtype": {"type": "DT_FLOAT"}}}, {"name": "StatefulPartitionedCall/Postprocessor/BatchMultiClassNonMaxSuppression/MultiClassNonMaxSuppression/non_max_suppression_with_scores/score_threshold", "op": "Const", "attr": {"value": {"tensor": {"dtype": "DT_FLOAT", "tensorShape": {}}}, "dtype": {"type": "DT_FLOAT"}}}, {"name": "StatefulPartitionedCall/Postprocessor/BatchMultiClassNonMaxSuppression/MultiClassNonMaxSuppression/non_max_suppression_with_scores/soft_nms_sigma", "op": "Const", "attr": {"value": {"tensor": {"dtype": "DT_FLOAT", "tensorShape": {}}}, "dtype": {"type": "DT_FLOAT"}}}, {"name": "StatefulPartitionedCall/Postprocessor/BatchMultiClassNonMaxSuppression/MultiClassNonMaxSuppression/strided_slice_2/stack", "op": "Const", "attr": {"dtype": {"type": "DT_INT32"}, "value": {"tensor": {"dtype": "DT_INT32", "tensorShape": {"dim": [{"size": "1"}]}}}}}, {"name": "StatefulPartitionedCall/Postprocessor/BatchMultiClassNonMaxSuppression/MultiClassNonMaxSuppression/strided_slice_2/stack_1", "op": "Const", "attr": {"value": {"tensor": {"dtype": "DT_INT32", "tensorShape": {"dim": [{"size": "1"}]}}}, "dtype": {"type": "DT_INT32"}}}, {"name": "StatefulPartitionedCall/Postprocessor/BatchMultiClassNonMaxSuppression/MultiClassNonMaxSuppression/strided_slice_2/stack_2", "op": "Const", "attr": {"value": {"tensor": {"dtype": "DT_INT32", "tensorShape": {"dim": [{"size": "1"}]}}}, "dtype": {"type": "DT_INT32"}}}, {"name": "StatefulPartitionedCall/Postprocessor/BatchMultiClassNonMaxSuppression/MultiClassNonMaxSuppression/zeros/Reshape/shape", "op": "Const", "attr": {"value": {"tensor": {"dtype": "DT_INT32", "tensorShape": {"dim": [{"size": "1"}]}}}, "dtype": {"type": "DT_INT32"}}}, {"name": "StatefulPartitionedCall/Postprocessor/BatchMultiClassNonMaxSuppression/MultiClassNonMaxSuppression/zeros/Const", "op": "Const", "attr": {"value": {"tensor": {"dtype": "DT_INT32", "tensorShape": {}}}, "dtype": {"type": "DT_INT32"}}}, {"name": "StatefulPartitionedCall/Postprocessor/BatchMultiClassNonMaxSuppression/MultiClassNonMaxSuppression/concat/axis", "op": "Const", "attr": {"value": {"tensor": {"dtype": "DT_INT32", "tensorShape": {}}}, "dtype": {"type": "DT_INT32"}}}, {"name": "StatefulPartitionedCall/Postprocessor/BatchMultiClassNonMaxSuppression/MultiClassNonMaxSuppression/Gather/GatherV2_5/axis", "op": "Const", "attr": {"value": {"tensor": {"dtype": "DT_INT32", "tensorShape": {}}}, "dtype": {"type": "DT_INT32"}}}, {"name": "StatefulPartitionedCall/Postprocessor/BatchMultiClassNonMaxSuppression/MultiClassNonMaxSuppression/SortByField/strided_slice/stack", "op": "Const", "attr": {"value": {"tensor": {"dtype": "DT_INT32", "tensorShape": {"dim": [{"size": "1"}]}}}, "dtype": {"type": "DT_INT32"}}}, {"name": "StatefulPartitionedCall/Postprocessor/BatchMultiClassNonMaxSuppression/MultiClassNonMaxSuppression/SortByField/strided_slice/stack_1", "op": "Const", "attr": {"dtype": {"type": "DT_INT32"}, "value": {"tensor": {"dtype": "DT_INT32", "tensorShape": {"dim": [{"size": "1"}]}}}}}, {"name": "StatefulPartitionedCall/Postprocessor/BatchMultiClassNonMaxSuppression/MultiClassNonMaxSuppression/SortByField/strided_slice/stack_2", "op": "Const", "attr": {"dtype": {"type": "DT_INT32"}, "value": {"tensor": {"dtype": "DT_INT32", "tensorShape": {"dim": [{"size": "1"}]}}}}}, {"name": "StatefulPartitionedCall/Postprocessor/BatchMultiClassNonMaxSuppression/MultiClassNonMaxSuppression/SortByField/Gather/GatherV2_6/axis", "op": "Const", "attr": {"dtype": {"type": "DT_INT32"}, "value": {"tensor": {"dtype": "DT_INT32", "tensorShape": {}}}}}, {"name": "StatefulPartitionedCall/Postprocessor/BatchMultiClassNonMaxSuppression/MultiClassNonMaxSuppression/ClipToWindow/strided_slice_3", "op": "Const", "attr": {"dtype": {"type": "DT_FLOAT"}, "value": {"tensor": {"dtype": "DT_FLOAT", "tensorShape": {}}}}}, {"name": "StatefulPartitionedCall/Postprocessor/BatchMultiClassNonMaxSuppression/MultiClassNonMaxSuppression/ClipToWindow/strided_slice_1", "op": "Const", "attr": {"dtype": {"type": "DT_FLOAT"}, "value": {"tensor": {"dtype": "DT_FLOAT", "tensorShape": {}}}}}, {"name": "StatefulPartitionedCall/Postprocessor/BatchMultiClassNonMaxSuppression/MultiClassNonMaxSuppression/ClipToWindow/concat/axis", "op": "Const", "attr": {"dtype": {"type": "DT_INT32"}, "value": {"tensor": {"dtype": "DT_INT32", "tensorShape": {}}}}}, {"name": "StatefulPartitionedCall/Postprocessor/BatchMultiClassNonMaxSuppression/MultiClassNonMaxSuppression/ClipToWindow/Greater/y", "op": "Const", "attr": {"dtype": {"type": "DT_FLOAT"}, "value": {"tensor": {"dtype": "DT_FLOAT", "tensorShape": {}}}}}, {"name": "StatefulPartitionedCall/Postprocessor/BatchMultiClassNonMaxSuppression/MultiClassNonMaxSuppression/ClipToWindow/Reshape/shape", "op": "Const", "attr": {"dtype": {"type": "DT_INT32"}, "value": {"tensor": {"dtype": "DT_INT32", "tensorShape": {"dim": [{"size": "1"}]}}}}}, {"name": "StatefulPartitionedCall/Postprocessor/BatchMultiClassNonMaxSuppression/MultiClassNonMaxSuppression/ClipToWindow/Gather/GatherV2_6/axis", "op": "Const", "attr": {"dtype": {"type": "DT_INT32"}, "value": {"tensor": {"dtype": "DT_INT32", "tensorShape": {}}}}}, {"name": "StatefulPartitionedCall/Postprocessor/BatchMultiClassNonMaxSuppression/MultiClassNonMaxSuppression/strided_slice_3/stack", "op": "Const", "attr": {"dtype": {"type": "DT_INT32"}, "value": {"tensor": {"dtype": "DT_INT32", "tensorShape": {"dim": [{"size": "1"}]}}}}}, {"name": "StatefulPartitionedCall/Postprocessor/BatchMultiClassNonMaxSuppression/MultiClassNonMaxSuppression/strided_slice_3/stack_1", "op": "Const", "attr": {"dtype": {"type": "DT_INT32"}, "value": {"tensor": {"dtype": "DT_INT32", "tensorShape": {"dim": [{"size": "1"}]}}}}}, {"name": "StatefulPartitionedCall/Postprocessor/BatchMultiClassNonMaxSuppression/MultiClassNonMaxSuppression/strided_slice_3/stack_2", "op": "Const", "attr": {"dtype": {"type": "DT_INT32"}, "value": {"tensor": {"dtype": "DT_INT32", "tensorShape": {"dim": [{"size": "1"}]}}}}}, {"name": "StatefulPartitionedCall/Postprocessor/BatchMultiClassNonMaxSuppression/MultiClassNonMaxSuppression/ones_1/Reshape/shape", "op": "Const", "attr": {"dtype": {"type": "DT_INT32"}, "value": {"tensor": {"dtype": "DT_INT32", "tensorShape": {"dim": [{"size": "1"}]}}}}}, {"name": "StatefulPartitionedCall/Postprocessor/BatchMultiClassNonMaxSuppression/MultiClassNonMaxSuppression/ones_1/Const", "op": "Const", "attr": {"dtype": {"type": "DT_FLOAT"}, "value": {"tensor": {"dtype": "DT_FLOAT", "tensorShape": {}}}}}, {"name": "input_tensor", "op": "Placeholder", "attr": {"dtype": {"type": "DT_UINT8"}, "shape": {"shape": {"dim": [{"size": "1"}, {"size": "-1"}, {"size": "-1"}, {"size": "3"}]}}}}, {"name": "StatefulPartitionedCall/ssd_mobile_net_v2fpn_keras_feature_extractor/functional_1/Conv1/Conv2D_weights", "op": "Const", "attr": {"dtype": {"type": "DT_FLOAT"}, "value": {"tensor": {"dtype": "DT_FLOAT", "tensorShape": {"dim": [{"size": "3"}, {"size": "3"}, {"size": "3"}, {"size": "32"}]}}}}}, {"name": "StatefulPartitionedCall/ssd_mobile_net_v2fpn_keras_feature_extractor/functional_1/Conv1/Conv2D_bn_offset", "op": "Const", "attr": {"dtype": {"type": "DT_FLOAT"}, "value": {"tensor": {"dtype": "DT_FLOAT", "tensorShape": {"dim": [{"size": "32"}]}}}}}, {"name": "StatefulPartitionedCall/ssd_mobile_net_v2fpn_keras_feature_extractor/functional_1/expanded_conv_depthwise/depthwise_weights", "op": "Const", "attr": {"dtype": {"type": "DT_FLOAT"}, "value": {"tensor": {"dtype": "DT_FLOAT", "tensorShape": {"dim": [{"size": "3"}, {"size": "3"}, {"size": "32"}, {"size": "1"}]}}}}}, {"name": "StatefulPartitionedCall/ssd_mobile_net_v2fpn_keras_feature_extractor/functional_1/expanded_conv_depthwise/depthwise_bn_offset", "op": "Const", "attr": {"dtype": {"type": "DT_FLOAT"}, "value": {"tensor": {"dtype": "DT_FLOAT", "tensorShape": {"dim": [{"size": "32"}]}}}}}, {"name": "StatefulPartitionedCall/ssd_mobile_net_v2fpn_keras_feature_extractor/functional_1/expanded_conv_project/Conv2D_weights", "op": "Const", "attr": {"value": {"tensor": {"dtype": "DT_FLOAT", "tensorShape": {"dim": [{"size": "1"}, {"size": "1"}, {"size": "32"}, {"size": "16"}]}}}, "dtype": {"type": "DT_FLOAT"}}}, {"name": "StatefulPartitionedCall/ssd_mobile_net_v2fpn_keras_feature_extractor/functional_1/expanded_conv_project/Conv2D_bn_offset", "op": "Const", "attr": {"dtype": {"type": "DT_FLOAT"}, "value": {"tensor": {"dtype": "DT_FLOAT", "tensorShape": {"dim": [{"size": "16"}]}}}}}, {"name": "StatefulPartitionedCall/ssd_mobile_net_v2fpn_keras_feature_extractor/functional_1/block_1_expand/Conv2D_weights", "op": "Const", "attr": {"dtype": {"type": "DT_FLOAT"}, "value": {"tensor": {"dtype": "DT_FLOAT", "tensorShape": {"dim": [{"size": "1"}, {"size": "1"}, {"size": "16"}, {"size": "96"}]}}}}}, {"name": "StatefulPartitionedCall/ssd_mobile_net_v2fpn_keras_feature_extractor/functional_1/block_1_expand/Conv2D_bn_offset", "op": "Const", "attr": {"dtype": {"type": "DT_FLOAT"}, "value": {"tensor": {"dtype": "DT_FLOAT", "tensorShape": {"dim": [{"size": "96"}]}}}}}, {"name": "StatefulPartitionedCall/ssd_mobile_net_v2fpn_keras_feature_extractor/functional_1/block_1_depthwise/depthwise_weights", "op": "Const", "attr": {"dtype": {"type": "DT_FLOAT"}, "value": {"tensor": {"dtype": "DT_FLOAT", "tensorShape": {"dim": [{"size": "3"}, {"size": "3"}, {"size": "96"}, {"size": "1"}]}}}}}, {"name": "StatefulPartitionedCall/ssd_mobile_net_v2fpn_keras_feature_extractor/functional_1/block_1_depthwise/depthwise_bn_offset", "op": "Const", "attr": {"dtype": {"type": "DT_FLOAT"}, "value": {"tensor": {"dtype": "DT_FLOAT", "tensorShape": {"dim": [{"size": "96"}]}}}}}, {"name": "StatefulPartitionedCall/ssd_mobile_net_v2fpn_keras_feature_extractor/functional_1/block_1_project/Conv2D_weights", "op": "Const", "attr": {"dtype": {"type": "DT_FLOAT"}, "value": {"tensor": {"dtype": "DT_FLOAT", "tensorShape": {"dim": [{"size": "1"}, {"size": "1"}, {"size": "96"}, {"size": "24"}]}}}}}, {"name": "StatefulPartitionedCall/ssd_mobile_net_v2fpn_keras_feature_extractor/functional_1/block_1_project/Conv2D_bn_offset", "op": "Const", "attr": {"value": {"tensor": {"dtype": "DT_FLOAT", "tensorShape": {"dim": [{"size": "24"}]}}}, "dtype": {"type": "DT_FLOAT"}}}, {"name": "StatefulPartitionedCall/ssd_mobile_net_v2fpn_keras_feature_extractor/functional_1/block_2_expand/Conv2D_weights", "op": "Const", "attr": {"value": {"tensor": {"dtype": "DT_FLOAT", "tensorShape": {"dim": [{"size": "1"}, {"size": "1"}, {"size": "24"}, {"size": "144"}]}}}, "dtype": {"type": "DT_FLOAT"}}}, {"name": "StatefulPartitionedCall/ssd_mobile_net_v2fpn_keras_feature_extractor/functional_1/block_2_expand/Conv2D_bn_offset", "op": "Const", "attr": {"value": {"tensor": {"dtype": "DT_FLOAT", "tensorShape": {"dim": [{"size": "144"}]}}}, "dtype": {"type": "DT_FLOAT"}}}, {"name": "StatefulPartitionedCall/ssd_mobile_net_v2fpn_keras_feature_extractor/functional_1/block_2_depthwise/depthwise_weights", "op": "Const", "attr": {"dtype": {"type": "DT_FLOAT"}, "value": {"tensor": {"dtype": "DT_FLOAT", "tensorShape": {"dim": [{"size": "3"}, {"size": "3"}, {"size": "144"}, {"size": "1"}]}}}}}, {"name": "StatefulPartitionedCall/ssd_mobile_net_v2fpn_keras_feature_extractor/functional_1/block_2_depthwise/depthwise_bn_offset", "op": "Const", "attr": {"value": {"tensor": {"dtype": "DT_FLOAT", "tensorShape": {"dim": [{"size": "144"}]}}}, "dtype": {"type": "DT_FLOAT"}}}, {"name": "StatefulPartitionedCall/ssd_mobile_net_v2fpn_keras_feature_extractor/functional_1/block_2_project/Conv2D_weights", "op": "Const", "attr": {"value": {"tensor": {"dtype": "DT_FLOAT", "tensorShape": {"dim": [{"size": "1"}, {"size": "1"}, {"size": "144"}, {"size": "24"}]}}}, "dtype": {"type": "DT_FLOAT"}}}, {"name": "StatefulPartitionedCall/ssd_mobile_net_v2fpn_keras_feature_extractor/functional_1/block_2_project/Conv2D_bn_offset", "op": "Const", "attr": {"value": {"tensor": {"dtype": "DT_FLOAT", "tensorShape": {"dim": [{"size": "24"}]}}}, "dtype": {"type": "DT_FLOAT"}}}, {"name": "StatefulPartitionedCall/ssd_mobile_net_v2fpn_keras_feature_extractor/functional_1/block_3_expand/Conv2D_weights", "op": "Const", "attr": {"value": {"tensor": {"dtype": "DT_FLOAT", "tensorShape": {"dim": [{"size": "1"}, {"size": "1"}, {"size": "24"}, {"size": "144"}]}}}, "dtype": {"type": "DT_FLOAT"}}}, {"name": "StatefulPartitionedCall/ssd_mobile_net_v2fpn_keras_feature_extractor/functional_1/block_3_expand/Conv2D_bn_offset", "op": "Const", "attr": {"dtype": {"type": "DT_FLOAT"}, "value": {"tensor": {"dtype": "DT_FLOAT", "tensorShape": {"dim": [{"size": "144"}]}}}}}, {"name": "StatefulPartitionedCall/ssd_mobile_net_v2fpn_keras_feature_extractor/functional_1/block_3_depthwise/depthwise_weights", "op": "Const", "attr": {"dtype": {"type": "DT_FLOAT"}, "value": {"tensor": {"dtype": "DT_FLOAT", "tensorShape": {"dim": [{"size": "3"}, {"size": "3"}, {"size": "144"}, {"size": "1"}]}}}}}, {"name": "StatefulPartitionedCall/ssd_mobile_net_v2fpn_keras_feature_extractor/functional_1/block_3_depthwise/depthwise_bn_offset", "op": "Const", "attr": {"dtype": {"type": "DT_FLOAT"}, "value": {"tensor": {"dtype": "DT_FLOAT", "tensorShape": {"dim": [{"size": "144"}]}}}}}, {"name": "StatefulPartitionedCall/ssd_mobile_net_v2fpn_keras_feature_extractor/functional_1/block_3_project/Conv2D_weights", "op": "Const", "attr": {"value": {"tensor": {"dtype": "DT_FLOAT", "tensorShape": {"dim": [{"size": "1"}, {"size": "1"}, {"size": "144"}, {"size": "32"}]}}}, "dtype": {"type": "DT_FLOAT"}}}, {"name": "StatefulPartitionedCall/ssd_mobile_net_v2fpn_keras_feature_extractor/functional_1/block_3_project/Conv2D_bn_offset", "op": "Const", "attr": {"dtype": {"type": "DT_FLOAT"}, "value": {"tensor": {"dtype": "DT_FLOAT", "tensorShape": {"dim": [{"size": "32"}]}}}}}, {"name": "StatefulPartitionedCall/ssd_mobile_net_v2fpn_keras_feature_extractor/functional_1/block_4_expand/Conv2D_weights", "op": "Const", "attr": {"dtype": {"type": "DT_FLOAT"}, "value": {"tensor": {"dtype": "DT_FLOAT", "tensorShape": {"dim": [{"size": "1"}, {"size": "1"}, {"size": "32"}, {"size": "192"}]}}}}}, {"name": "StatefulPartitionedCall/ssd_mobile_net_v2fpn_keras_feature_extractor/functional_1/block_4_expand/Conv2D_bn_offset", "op": "Const", "attr": {"dtype": {"type": "DT_FLOAT"}, "value": {"tensor": {"dtype": "DT_FLOAT", "tensorShape": {"dim": [{"size": "192"}]}}}}}, {"name": "StatefulPartitionedCall/ssd_mobile_net_v2fpn_keras_feature_extractor/functional_1/block_4_depthwise/depthwise_weights", "op": "Const", "attr": {"dtype": {"type": "DT_FLOAT"}, "value": {"tensor": {"dtype": "DT_FLOAT", "tensorShape": {"dim": [{"size": "3"}, {"size": "3"}, {"size": "192"}, {"size": "1"}]}}}}}, {"name": "StatefulPartitionedCall/ssd_mobile_net_v2fpn_keras_feature_extractor/functional_1/block_4_depthwise/depthwise_bn_offset", "op": "Const", "attr": {"value": {"tensor": {"dtype": "DT_FLOAT", "tensorShape": {"dim": [{"size": "192"}]}}}, "dtype": {"type": "DT_FLOAT"}}}, {"name": "StatefulPartitionedCall/ssd_mobile_net_v2fpn_keras_feature_extractor/functional_1/block_4_project/Conv2D_weights", "op": "Const", "attr": {"value": {"tensor": {"dtype": "DT_FLOAT", "tensorShape": {"dim": [{"size": "1"}, {"size": "1"}, {"size": "192"}, {"size": "32"}]}}}, "dtype": {"type": "DT_FLOAT"}}}, {"name": "StatefulPartitionedCall/ssd_mobile_net_v2fpn_keras_feature_extractor/functional_1/block_4_project/Conv2D_bn_offset", "op": "Const", "attr": {"value": {"tensor": {"dtype": "DT_FLOAT", "tensorShape": {"dim": [{"size": "32"}]}}}, "dtype": {"type": "DT_FLOAT"}}}, {"name": "StatefulPartitionedCall/ssd_mobile_net_v2fpn_keras_feature_extractor/functional_1/block_5_expand/Conv2D_weights", "op": "Const", "attr": {"value": {"tensor": {"dtype": "DT_FLOAT", "tensorShape": {"dim": [{"size": "1"}, {"size": "1"}, {"size": "32"}, {"size": "192"}]}}}, "dtype": {"type": "DT_FLOAT"}}}, {"name": "StatefulPartitionedCall/ssd_mobile_net_v2fpn_keras_feature_extractor/functional_1/block_5_expand/Conv2D_bn_offset", "op": "Const", "attr": {"value": {"tensor": {"dtype": "DT_FLOAT", "tensorShape": {"dim": [{"size": "192"}]}}}, "dtype": {"type": "DT_FLOAT"}}}, {"name": "StatefulPartitionedCall/ssd_mobile_net_v2fpn_keras_feature_extractor/functional_1/block_5_depthwise/depthwise_weights", "op": "Const", "attr": {"value": {"tensor": {"dtype": "DT_FLOAT", "tensorShape": {"dim": [{"size": "3"}, {"size": "3"}, {"size": "192"}, {"size": "1"}]}}}, "dtype": {"type": "DT_FLOAT"}}}, {"name": "StatefulPartitionedCall/ssd_mobile_net_v2fpn_keras_feature_extractor/functional_1/block_5_depthwise/depthwise_bn_offset", "op": "Const", "attr": {"dtype": {"type": "DT_FLOAT"}, "value": {"tensor": {"dtype": "DT_FLOAT", "tensorShape": {"dim": [{"size": "192"}]}}}}}, {"name": "StatefulPartitionedCall/ssd_mobile_net_v2fpn_keras_feature_extractor/functional_1/block_5_project/Conv2D_weights", "op": "Const", "attr": {"dtype": {"type": "DT_FLOAT"}, "value": {"tensor": {"dtype": "DT_FLOAT", "tensorShape": {"dim": [{"size": "1"}, {"size": "1"}, {"size": "192"}, {"size": "32"}]}}}}}, {"name": "StatefulPartitionedCall/ssd_mobile_net_v2fpn_keras_feature_extractor/functional_1/block_5_project/Conv2D_bn_offset", "op": "Const", "attr": {"dtype": {"type": "DT_FLOAT"}, "value": {"tensor": {"dtype": "DT_FLOAT", "tensorShape": {"dim": [{"size": "32"}]}}}}}, {"name": "StatefulPartitionedCall/ssd_mobile_net_v2fpn_keras_feature_extractor/functional_1/block_6_expand/Conv2D_weights", "op": "Const", "attr": {"dtype": {"type": "DT_FLOAT"}, "value": {"tensor": {"dtype": "DT_FLOAT", "tensorShape": {"dim": [{"size": "1"}, {"size": "1"}, {"size": "32"}, {"size": "192"}]}}}}}, {"name": "StatefulPartitionedCall/ssd_mobile_net_v2fpn_keras_feature_extractor/functional_1/block_6_expand/Conv2D_bn_offset", "op": "Const", "attr": {"dtype": {"type": "DT_FLOAT"}, "value": {"tensor": {"dtype": "DT_FLOAT", "tensorShape": {"dim": [{"size": "192"}]}}}}}, {"name": "StatefulPartitionedCall/ssd_mobile_net_v2fpn_keras_feature_extractor/functional_1/block_6_depthwise/depthwise_weights", "op": "Const", "attr": {"dtype": {"type": "DT_FLOAT"}, "value": {"tensor": {"dtype": "DT_FLOAT", "tensorShape": {"dim": [{"size": "3"}, {"size": "3"}, {"size": "192"}, {"size": "1"}]}}}}}, {"name": "StatefulPartitionedCall/ssd_mobile_net_v2fpn_keras_feature_extractor/functional_1/block_6_depthwise/depthwise_bn_offset", "op": "Const", "attr": {"dtype": {"type": "DT_FLOAT"}, "value": {"tensor": {"dtype": "DT_FLOAT", "tensorShape": {"dim": [{"size": "192"}]}}}}}, {"name": "StatefulPartitionedCall/ssd_mobile_net_v2fpn_keras_feature_extractor/functional_1/block_6_project/Conv2D_weights", "op": "Const", "attr": {"dtype": {"type": "DT_FLOAT"}, "value": {"tensor": {"dtype": "DT_FLOAT", "tensorShape": {"dim": [{"size": "1"}, {"size": "1"}, {"size": "192"}, {"size": "64"}]}}}}}, {"name": "StatefulPartitionedCall/ssd_mobile_net_v2fpn_keras_feature_extractor/functional_1/block_6_project/Conv2D_bn_offset", "op": "Const", "attr": {"value": {"tensor": {"dtype": "DT_FLOAT", "tensorShape": {"dim": [{"size": "64"}]}}}, "dtype": {"type": "DT_FLOAT"}}}, {"name": "StatefulPartitionedCall/ssd_mobile_net_v2fpn_keras_feature_extractor/functional_1/block_7_expand/Conv2D_weights", "op": "Const", "attr": {"dtype": {"type": "DT_FLOAT"}, "value": {"tensor": {"dtype": "DT_FLOAT", "tensorShape": {"dim": [{"size": "1"}, {"size": "1"}, {"size": "64"}, {"size": "384"}]}}}}}, {"name": "StatefulPartitionedCall/ssd_mobile_net_v2fpn_keras_feature_extractor/functional_1/block_7_expand/Conv2D_bn_offset", "op": "Const", "attr": {"dtype": {"type": "DT_FLOAT"}, "value": {"tensor": {"dtype": "DT_FLOAT", "tensorShape": {"dim": [{"size": "384"}]}}}}}, {"name": "StatefulPartitionedCall/ssd_mobile_net_v2fpn_keras_feature_extractor/functional_1/block_7_depthwise/depthwise_weights", "op": "Const", "attr": {"dtype": {"type": "DT_FLOAT"}, "value": {"tensor": {"dtype": "DT_FLOAT", "tensorShape": {"dim": [{"size": "3"}, {"size": "3"}, {"size": "384"}, {"size": "1"}]}}}}}, {"name": "StatefulPartitionedCall/ssd_mobile_net_v2fpn_keras_feature_extractor/functional_1/block_7_depthwise/depthwise_bn_offset", "op": "Const", "attr": {"dtype": {"type": "DT_FLOAT"}, "value": {"tensor": {"dtype": "DT_FLOAT", "tensorShape": {"dim": [{"size": "384"}]}}}}}, {"name": "StatefulPartitionedCall/ssd_mobile_net_v2fpn_keras_feature_extractor/functional_1/block_7_project/Conv2D_weights", "op": "Const", "attr": {"dtype": {"type": "DT_FLOAT"}, "value": {"tensor": {"dtype": "DT_FLOAT", "tensorShape": {"dim": [{"size": "1"}, {"size": "1"}, {"size": "384"}, {"size": "64"}]}}}}}, {"name": "StatefulPartitionedCall/ssd_mobile_net_v2fpn_keras_feature_extractor/functional_1/block_7_project/Conv2D_bn_offset", "op": "Const", "attr": {"dtype": {"type": "DT_FLOAT"}, "value": {"tensor": {"dtype": "DT_FLOAT", "tensorShape": {"dim": [{"size": "64"}]}}}}}, {"name": "StatefulPartitionedCall/ssd_mobile_net_v2fpn_keras_feature_extractor/functional_1/block_8_expand/Conv2D_weights", "op": "Const", "attr": {"dtype": {"type": "DT_FLOAT"}, "value": {"tensor": {"dtype": "DT_FLOAT", "tensorShape": {"dim": [{"size": "1"}, {"size": "1"}, {"size": "64"}, {"size": "384"}]}}}}}, {"name": "StatefulPartitionedCall/ssd_mobile_net_v2fpn_keras_feature_extractor/functional_1/block_8_expand/Conv2D_bn_offset", "op": "Const", "attr": {"value": {"tensor": {"dtype": "DT_FLOAT", "tensorShape": {"dim": [{"size": "384"}]}}}, "dtype": {"type": "DT_FLOAT"}}}, {"name": "StatefulPartitionedCall/ssd_mobile_net_v2fpn_keras_feature_extractor/functional_1/block_8_depthwise/depthwise_weights", "op": "Const", "attr": {"value": {"tensor": {"dtype": "DT_FLOAT", "tensorShape": {"dim": [{"size": "3"}, {"size": "3"}, {"size": "384"}, {"size": "1"}]}}}, "dtype": {"type": "DT_FLOAT"}}}, {"name": "StatefulPartitionedCall/ssd_mobile_net_v2fpn_keras_feature_extractor/functional_1/block_8_depthwise/depthwise_bn_offset", "op": "Const", "attr": {"value": {"tensor": {"dtype": "DT_FLOAT", "tensorShape": {"dim": [{"size": "384"}]}}}, "dtype": {"type": "DT_FLOAT"}}}, {"name": "StatefulPartitionedCall/ssd_mobile_net_v2fpn_keras_feature_extractor/functional_1/block_8_project/Conv2D_weights", "op": "Const", "attr": {"value": {"tensor": {"dtype": "DT_FLOAT", "tensorShape": {"dim": [{"size": "1"}, {"size": "1"}, {"size": "384"}, {"size": "64"}]}}}, "dtype": {"type": "DT_FLOAT"}}}, {"name": "StatefulPartitionedCall/ssd_mobile_net_v2fpn_keras_feature_extractor/functional_1/block_8_project/Conv2D_bn_offset", "op": "Const", "attr": {"value": {"tensor": {"dtype": "DT_FLOAT", "tensorShape": {"dim": [{"size": "64"}]}}}, "dtype": {"type": "DT_FLOAT"}}}, {"name": "StatefulPartitionedCall/ssd_mobile_net_v2fpn_keras_feature_extractor/functional_1/block_9_expand/Conv2D_weights", "op": "Const", "attr": {"value": {"tensor": {"dtype": "DT_FLOAT", "tensorShape": {"dim": [{"size": "1"}, {"size": "1"}, {"size": "64"}, {"size": "384"}]}}}, "dtype": {"type": "DT_FLOAT"}}}, {"name": "StatefulPartitionedCall/ssd_mobile_net_v2fpn_keras_feature_extractor/functional_1/block_9_expand/Conv2D_bn_offset", "op": "Const", "attr": {"value": {"tensor": {"dtype": "DT_FLOAT", "tensorShape": {"dim": [{"size": "384"}]}}}, "dtype": {"type": "DT_FLOAT"}}}, {"name": "StatefulPartitionedCall/ssd_mobile_net_v2fpn_keras_feature_extractor/functional_1/block_9_depthwise/depthwise_weights", "op": "Const", "attr": {"value": {"tensor": {"dtype": "DT_FLOAT", "tensorShape": {"dim": [{"size": "3"}, {"size": "3"}, {"size": "384"}, {"size": "1"}]}}}, "dtype": {"type": "DT_FLOAT"}}}, {"name": "StatefulPartitionedCall/ssd_mobile_net_v2fpn_keras_feature_extractor/functional_1/block_9_depthwise/depthwise_bn_offset", "op": "Const", "attr": {"value": {"tensor": {"dtype": "DT_FLOAT", "tensorShape": {"dim": [{"size": "384"}]}}}, "dtype": {"type": "DT_FLOAT"}}}, {"name": "StatefulPartitionedCall/ssd_mobile_net_v2fpn_keras_feature_extractor/functional_1/block_9_project/Conv2D_weights", "op": "Const", "attr": {"value": {"tensor": {"dtype": "DT_FLOAT", "tensorShape": {"dim": [{"size": "1"}, {"size": "1"}, {"size": "384"}, {"size": "64"}]}}}, "dtype": {"type": "DT_FLOAT"}}}, {"name": "StatefulPartitionedCall/ssd_mobile_net_v2fpn_keras_feature_extractor/functional_1/block_9_project/Conv2D_bn_offset", "op": "Const", "attr": {"value": {"tensor": {"dtype": "DT_FLOAT", "tensorShape": {"dim": [{"size": "64"}]}}}, "dtype": {"type": "DT_FLOAT"}}}, {"name": "StatefulPartitionedCall/ssd_mobile_net_v2fpn_keras_feature_extractor/functional_1/block_10_expand/Conv2D_weights", "op": "Const", "attr": {"value": {"tensor": {"dtype": "DT_FLOAT", "tensorShape": {"dim": [{"size": "1"}, {"size": "1"}, {"size": "64"}, {"size": "384"}]}}}, "dtype": {"type": "DT_FLOAT"}}}, {"name": "StatefulPartitionedCall/ssd_mobile_net_v2fpn_keras_feature_extractor/functional_1/block_10_expand/Conv2D_bn_offset", "op": "Const", "attr": {"value": {"tensor": {"dtype": "DT_FLOAT", "tensorShape": {"dim": [{"size": "384"}]}}}, "dtype": {"type": "DT_FLOAT"}}}, {"name": "StatefulPartitionedCall/ssd_mobile_net_v2fpn_keras_feature_extractor/functional_1/block_10_depthwise/depthwise_weights", "op": "Const", "attr": {"value": {"tensor": {"dtype": "DT_FLOAT", "tensorShape": {"dim": [{"size": "3"}, {"size": "3"}, {"size": "384"}, {"size": "1"}]}}}, "dtype": {"type": "DT_FLOAT"}}}, {"name": "StatefulPartitionedCall/ssd_mobile_net_v2fpn_keras_feature_extractor/functional_1/block_10_depthwise/depthwise_bn_offset", "op": "Const", "attr": {"value": {"tensor": {"dtype": "DT_FLOAT", "tensorShape": {"dim": [{"size": "384"}]}}}, "dtype": {"type": "DT_FLOAT"}}}, {"name": "StatefulPartitionedCall/ssd_mobile_net_v2fpn_keras_feature_extractor/functional_1/block_10_project/Conv2D_weights", "op": "Const", "attr": {"value": {"tensor": {"dtype": "DT_FLOAT", "tensorShape": {"dim": [{"size": "1"}, {"size": "1"}, {"size": "384"}, {"size": "96"}]}}}, "dtype": {"type": "DT_FLOAT"}}}, {"name": "StatefulPartitionedCall/ssd_mobile_net_v2fpn_keras_feature_extractor/functional_1/block_10_project/Conv2D_bn_offset", "op": "Const", "attr": {"value": {"tensor": {"dtype": "DT_FLOAT", "tensorShape": {"dim": [{"size": "96"}]}}}, "dtype": {"type": "DT_FLOAT"}}}, {"name": "StatefulPartitionedCall/ssd_mobile_net_v2fpn_keras_feature_extractor/functional_1/block_11_expand/Conv2D_weights", "op": "Const", "attr": {"value": {"tensor": {"dtype": "DT_FLOAT", "tensorShape": {"dim": [{"size": "1"}, {"size": "1"}, {"size": "96"}, {"size": "576"}]}}}, "dtype": {"type": "DT_FLOAT"}}}, {"name": "StatefulPartitionedCall/ssd_mobile_net_v2fpn_keras_feature_extractor/functional_1/block_11_expand/Conv2D_bn_offset", "op": "Const", "attr": {"value": {"tensor": {"dtype": "DT_FLOAT", "tensorShape": {"dim": [{"size": "576"}]}}}, "dtype": {"type": "DT_FLOAT"}}}, {"name": "StatefulPartitionedCall/ssd_mobile_net_v2fpn_keras_feature_extractor/functional_1/block_11_depthwise/depthwise_weights", "op": "Const", "attr": {"value": {"tensor": {"dtype": "DT_FLOAT", "tensorShape": {"dim": [{"size": "3"}, {"size": "3"}, {"size": "576"}, {"size": "1"}]}}}, "dtype": {"type": "DT_FLOAT"}}}, {"name": "StatefulPartitionedCall/ssd_mobile_net_v2fpn_keras_feature_extractor/functional_1/block_11_depthwise/depthwise_bn_offset", "op": "Const", "attr": {"value": {"tensor": {"dtype": "DT_FLOAT", "tensorShape": {"dim": [{"size": "576"}]}}}, "dtype": {"type": "DT_FLOAT"}}}, {"name": "StatefulPartitionedCall/ssd_mobile_net_v2fpn_keras_feature_extractor/functional_1/block_11_project/Conv2D_weights", "op": "Const", "attr": {"value": {"tensor": {"dtype": "DT_FLOAT", "tensorShape": {"dim": [{"size": "1"}, {"size": "1"}, {"size": "576"}, {"size": "96"}]}}}, "dtype": {"type": "DT_FLOAT"}}}, {"name": "StatefulPartitionedCall/ssd_mobile_net_v2fpn_keras_feature_extractor/functional_1/block_11_project/Conv2D_bn_offset", "op": "Const", "attr": {"value": {"tensor": {"dtype": "DT_FLOAT", "tensorShape": {"dim": [{"size": "96"}]}}}, "dtype": {"type": "DT_FLOAT"}}}, {"name": "StatefulPartitionedCall/ssd_mobile_net_v2fpn_keras_feature_extractor/functional_1/block_12_expand/Conv2D_weights", "op": "Const", "attr": {"value": {"tensor": {"dtype": "DT_FLOAT", "tensorShape": {"dim": [{"size": "1"}, {"size": "1"}, {"size": "96"}, {"size": "576"}]}}}, "dtype": {"type": "DT_FLOAT"}}}, {"name": "StatefulPartitionedCall/ssd_mobile_net_v2fpn_keras_feature_extractor/functional_1/block_12_expand/Conv2D_bn_offset", "op": "Const", "attr": {"dtype": {"type": "DT_FLOAT"}, "value": {"tensor": {"dtype": "DT_FLOAT", "tensorShape": {"dim": [{"size": "576"}]}}}}}, {"name": "StatefulPartitionedCall/ssd_mobile_net_v2fpn_keras_feature_extractor/functional_1/block_12_depthwise/depthwise_weights", "op": "Const", "attr": {"value": {"tensor": {"dtype": "DT_FLOAT", "tensorShape": {"dim": [{"size": "3"}, {"size": "3"}, {"size": "576"}, {"size": "1"}]}}}, "dtype": {"type": "DT_FLOAT"}}}, {"name": "StatefulPartitionedCall/ssd_mobile_net_v2fpn_keras_feature_extractor/functional_1/block_12_depthwise/depthwise_bn_offset", "op": "Const", "attr": {"value": {"tensor": {"dtype": "DT_FLOAT", "tensorShape": {"dim": [{"size": "576"}]}}}, "dtype": {"type": "DT_FLOAT"}}}, {"name": "StatefulPartitionedCall/ssd_mobile_net_v2fpn_keras_feature_extractor/functional_1/block_12_project/Conv2D_weights", "op": "Const", "attr": {"value": {"tensor": {"dtype": "DT_FLOAT", "tensorShape": {"dim": [{"size": "1"}, {"size": "1"}, {"size": "576"}, {"size": "96"}]}}}, "dtype": {"type": "DT_FLOAT"}}}, {"name": "StatefulPartitionedCall/ssd_mobile_net_v2fpn_keras_feature_extractor/functional_1/block_12_project/Conv2D_bn_offset", "op": "Const", "attr": {"value": {"tensor": {"dtype": "DT_FLOAT", "tensorShape": {"dim": [{"size": "96"}]}}}, "dtype": {"type": "DT_FLOAT"}}}, {"name": "StatefulPartitionedCall/ssd_mobile_net_v2fpn_keras_feature_extractor/functional_1/block_13_expand/Conv2D_weights", "op": "Const", "attr": {"value": {"tensor": {"dtype": "DT_FLOAT", "tensorShape": {"dim": [{"size": "1"}, {"size": "1"}, {"size": "96"}, {"size": "576"}]}}}, "dtype": {"type": "DT_FLOAT"}}}, {"name": "StatefulPartitionedCall/ssd_mobile_net_v2fpn_keras_feature_extractor/functional_1/block_13_expand/Conv2D_bn_offset", "op": "Const", "attr": {"value": {"tensor": {"dtype": "DT_FLOAT", "tensorShape": {"dim": [{"size": "576"}]}}}, "dtype": {"type": "DT_FLOAT"}}}, {"name": "StatefulPartitionedCall/ssd_mobile_net_v2fpn_keras_feature_extractor/functional_1/block_13_depthwise/depthwise_weights", "op": "Const", "attr": {"dtype": {"type": "DT_FLOAT"}, "value": {"tensor": {"dtype": "DT_FLOAT", "tensorShape": {"dim": [{"size": "3"}, {"size": "3"}, {"size": "576"}, {"size": "1"}]}}}}}, {"name": "StatefulPartitionedCall/ssd_mobile_net_v2fpn_keras_feature_extractor/functional_1/block_13_depthwise/depthwise_bn_offset", "op": "Const", "attr": {"dtype": {"type": "DT_FLOAT"}, "value": {"tensor": {"dtype": "DT_FLOAT", "tensorShape": {"dim": [{"size": "576"}]}}}}}, {"name": "StatefulPartitionedCall/ssd_mobile_net_v2fpn_keras_feature_extractor/functional_1/block_13_project/Conv2D_weights", "op": "Const", "attr": {"value": {"tensor": {"dtype": "DT_FLOAT", "tensorShape": {"dim": [{"size": "1"}, {"size": "1"}, {"size": "576"}, {"size": "160"}]}}}, "dtype": {"type": "DT_FLOAT"}}}, {"name": "StatefulPartitionedCall/ssd_mobile_net_v2fpn_keras_feature_extractor/functional_1/block_13_project/Conv2D_bn_offset", "op": "Const", "attr": {"dtype": {"type": "DT_FLOAT"}, "value": {"tensor": {"dtype": "DT_FLOAT", "tensorShape": {"dim": [{"size": "160"}]}}}}}, {"name": "StatefulPartitionedCall/ssd_mobile_net_v2fpn_keras_feature_extractor/functional_1/block_14_expand/Conv2D_weights", "op": "Const", "attr": {"dtype": {"type": "DT_FLOAT"}, "value": {"tensor": {"dtype": "DT_FLOAT", "tensorShape": {"dim": [{"size": "1"}, {"size": "1"}, {"size": "160"}, {"size": "960"}]}}}}}, {"name": "StatefulPartitionedCall/ssd_mobile_net_v2fpn_keras_feature_extractor/functional_1/block_14_expand/Conv2D_bn_offset", "op": "Const", "attr": {"dtype": {"type": "DT_FLOAT"}, "value": {"tensor": {"dtype": "DT_FLOAT", "tensorShape": {"dim": [{"size": "960"}]}}}}}, {"name": "StatefulPartitionedCall/ssd_mobile_net_v2fpn_keras_feature_extractor/functional_1/block_14_depthwise/depthwise_weights", "op": "Const", "attr": {"dtype": {"type": "DT_FLOAT"}, "value": {"tensor": {"dtype": "DT_FLOAT", "tensorShape": {"dim": [{"size": "3"}, {"size": "3"}, {"size": "960"}, {"size": "1"}]}}}}}, {"name": "StatefulPartitionedCall/ssd_mobile_net_v2fpn_keras_feature_extractor/functional_1/block_14_depthwise/depthwise_bn_offset", "op": "Const", "attr": {"dtype": {"type": "DT_FLOAT"}, "value": {"tensor": {"dtype": "DT_FLOAT", "tensorShape": {"dim": [{"size": "960"}]}}}}}, {"name": "StatefulPartitionedCall/ssd_mobile_net_v2fpn_keras_feature_extractor/functional_1/block_14_project/Conv2D_weights", "op": "Const", "attr": {"dtype": {"type": "DT_FLOAT"}, "value": {"tensor": {"dtype": "DT_FLOAT", "tensorShape": {"dim": [{"size": "1"}, {"size": "1"}, {"size": "960"}, {"size": "160"}]}}}}}, {"name": "StatefulPartitionedCall/ssd_mobile_net_v2fpn_keras_feature_extractor/functional_1/block_14_project/Conv2D_bn_offset", "op": "Const", "attr": {"value": {"tensor": {"dtype": "DT_FLOAT", "tensorShape": {"dim": [{"size": "160"}]}}}, "dtype": {"type": "DT_FLOAT"}}}, {"name": "StatefulPartitionedCall/ssd_mobile_net_v2fpn_keras_feature_extractor/functional_1/block_15_expand/Conv2D_weights", "op": "Const", "attr": {"value": {"tensor": {"dtype": "DT_FLOAT", "tensorShape": {"dim": [{"size": "1"}, {"size": "1"}, {"size": "160"}, {"size": "960"}]}}}, "dtype": {"type": "DT_FLOAT"}}}, {"name": "StatefulPartitionedCall/ssd_mobile_net_v2fpn_keras_feature_extractor/functional_1/block_15_expand/Conv2D_bn_offset", "op": "Const", "attr": {"value": {"tensor": {"dtype": "DT_FLOAT", "tensorShape": {"dim": [{"size": "960"}]}}}, "dtype": {"type": "DT_FLOAT"}}}, {"name": "StatefulPartitionedCall/ssd_mobile_net_v2fpn_keras_feature_extractor/functional_1/block_15_depthwise/depthwise_weights", "op": "Const", "attr": {"value": {"tensor": {"dtype": "DT_FLOAT", "tensorShape": {"dim": [{"size": "3"}, {"size": "3"}, {"size": "960"}, {"size": "1"}]}}}, "dtype": {"type": "DT_FLOAT"}}}, {"name": "StatefulPartitionedCall/ssd_mobile_net_v2fpn_keras_feature_extractor/functional_1/block_15_depthwise/depthwise_bn_offset", "op": "Const", "attr": {"value": {"tensor": {"dtype": "DT_FLOAT", "tensorShape": {"dim": [{"size": "960"}]}}}, "dtype": {"type": "DT_FLOAT"}}}, {"name": "StatefulPartitionedCall/ssd_mobile_net_v2fpn_keras_feature_extractor/functional_1/block_15_project/Conv2D_weights", "op": "Const", "attr": {"value": {"tensor": {"dtype": "DT_FLOAT", "tensorShape": {"dim": [{"size": "1"}, {"size": "1"}, {"size": "960"}, {"size": "160"}]}}}, "dtype": {"type": "DT_FLOAT"}}}, {"name": "StatefulPartitionedCall/ssd_mobile_net_v2fpn_keras_feature_extractor/functional_1/block_15_project/Conv2D_bn_offset", "op": "Const", "attr": {"value": {"tensor": {"dtype": "DT_FLOAT", "tensorShape": {"dim": [{"size": "160"}]}}}, "dtype": {"type": "DT_FLOAT"}}}, {"name": "StatefulPartitionedCall/ssd_mobile_net_v2fpn_keras_feature_extractor/functional_1/block_16_expand/Conv2D_weights", "op": "Const", "attr": {"value": {"tensor": {"dtype": "DT_FLOAT", "tensorShape": {"dim": [{"size": "1"}, {"size": "1"}, {"size": "160"}, {"size": "960"}]}}}, "dtype": {"type": "DT_FLOAT"}}}, {"name": "StatefulPartitionedCall/ssd_mobile_net_v2fpn_keras_feature_extractor/functional_1/block_16_expand/Conv2D_bn_offset", "op": "Const", "attr": {"value": {"tensor": {"dtype": "DT_FLOAT", "tensorShape": {"dim": [{"size": "960"}]}}}, "dtype": {"type": "DT_FLOAT"}}}, {"name": "StatefulPartitionedCall/ssd_mobile_net_v2fpn_keras_feature_extractor/functional_1/block_16_depthwise/depthwise_weights", "op": "Const", "attr": {"value": {"tensor": {"dtype": "DT_FLOAT", "tensorShape": {"dim": [{"size": "3"}, {"size": "3"}, {"size": "960"}, {"size": "1"}]}}}, "dtype": {"type": "DT_FLOAT"}}}, {"name": "StatefulPartitionedCall/ssd_mobile_net_v2fpn_keras_feature_extractor/functional_1/block_16_depthwise/depthwise_bn_offset", "op": "Const", "attr": {"value": {"tensor": {"dtype": "DT_FLOAT", "tensorShape": {"dim": [{"size": "960"}]}}}, "dtype": {"type": "DT_FLOAT"}}}, {"name": "StatefulPartitionedCall/ssd_mobile_net_v2fpn_keras_feature_extractor/functional_1/block_16_project/Conv2D_weights", "op": "Const", "attr": {"value": {"tensor": {"dtype": "DT_FLOAT", "tensorShape": {"dim": [{"size": "1"}, {"size": "1"}, {"size": "960"}, {"size": "320"}]}}}, "dtype": {"type": "DT_FLOAT"}}}, {"name": "StatefulPartitionedCall/ssd_mobile_net_v2fpn_keras_feature_extractor/functional_1/block_16_project/Conv2D_bn_offset", "op": "Const", "attr": {"value": {"tensor": {"dtype": "DT_FLOAT", "tensorShape": {"dim": [{"size": "320"}]}}}, "dtype": {"type": "DT_FLOAT"}}}, {"name": "StatefulPartitionedCall/ssd_mobile_net_v2fpn_keras_feature_extractor/functional_1/Conv_1/Conv2D_weights", "op": "Const", "attr": {"value": {"tensor": {"dtype": "DT_FLOAT", "tensorShape": {"dim": [{"size": "1"}, {"size": "1"}, {"size": "320"}, {"size": "1280"}]}}}, "dtype": {"type": "DT_FLOAT"}}}, {"name": "StatefulPartitionedCall/ssd_mobile_net_v2fpn_keras_feature_extractor/functional_1/Conv_1/Conv2D_bn_offset", "op": "Const", "attr": {"value": {"tensor": {"dtype": "DT_FLOAT", "tensorShape": {"dim": [{"size": "1280"}]}}}, "dtype": {"type": "DT_FLOAT"}}}, {"name": "StatefulPartitionedCall/WeightSharedConvolutionalBoxPredictor/PredictionTower/conv2d_0/separable_conv2d_2_weights", "op": "Const", "attr": {"value": {"tensor": {"dtype": "DT_FLOAT", "tensorShape": {"dim": [{"size": "1"}, {"size": "1"}, {"size": "128"}, {"size": "128"}]}}}, "dtype": {"type": "DT_FLOAT"}}}, {"name": "StatefulPartitionedCall/WeightSharedConvolutionalBoxPredictor/PredictionTower/conv2d_0/separable_conv2d_2_bn_offset", "op": "Const", "attr": {"value": {"tensor": {"dtype": "DT_FLOAT", "tensorShape": {"dim": [{"size": "128"}]}}}, "dtype": {"type": "DT_FLOAT"}}}, {"name": "StatefulPartitionedCall/ssd_mobile_net_v2fpn_keras_feature_extractor/bottom_up_Conv2d_20_depthwise_conv/separable_conv2d_weights", "op": "Const", "attr": {"value": {"tensor": {"dtype": "DT_FLOAT", "tensorShape": {"dim": [{"size": "1"}, {"size": "1"}, {"size": "128"}, {"size": "128"}]}}}, "dtype": {"type": "DT_FLOAT"}}}, {"name": "StatefulPartitionedCall/ssd_mobile_net_v2fpn_keras_feature_extractor/bottom_up_Conv2d_20_depthwise_conv/separable_conv2d_bn_offset", "op": "Const", "attr": {"value": {"tensor": {"dtype": "DT_FLOAT", "tensorShape": {"dim": [{"size": "128"}]}}}, "dtype": {"type": "DT_FLOAT"}}}, {"name": "StatefulPartitionedCall/ssd_mobile_net_v2fpn_keras_feature_extractor/FeatureMaps/top_down/smoothing_2_depthwise_conv/separable_conv2d_weights", "op": "Const", "attr": {"value": {"tensor": {"dtype": "DT_FLOAT", "tensorShape": {"dim": [{"size": "1"}, {"size": "1"}, {"size": "128"}, {"size": "128"}]}}}, "dtype": {"type": "DT_FLOAT"}}}, {"name": "StatefulPartitionedCall/ssd_mobile_net_v2fpn_keras_feature_extractor/FeatureMaps/top_down/smoothing_2_depthwise_conv/separable_conv2d_bn_offset", "op": "Const", "attr": {"value": {"tensor": {"dtype": "DT_FLOAT", "tensorShape": {"dim": [{"size": "128"}]}}}, "dtype": {"type": "DT_FLOAT"}}}, {"name": "StatefulPartitionedCall/WeightSharedConvolutionalBoxPredictor/PredictionTower/conv2d_1/separable_conv2d_2_weights", "op": "Const", "attr": {"value": {"tensor": {"dtype": "DT_FLOAT", "tensorShape": {"dim": [{"size": "1"}, {"size": "1"}, {"size": "128"}, {"size": "128"}]}}}, "dtype": {"type": "DT_FLOAT"}}}, {"name": "StatefulPartitionedCall/WeightSharedConvolutionalBoxPredictor/PredictionTower/conv2d_1/separable_conv2d_2_bn_offset", "op": "Const", "attr": {"dtype": {"type": "DT_FLOAT"}, "value": {"tensor": {"dtype": "DT_FLOAT", "tensorShape": {"dim": [{"size": "128"}]}}}}}, {"name": "StatefulPartitionedCall/WeightSharedConvolutionalBoxPredictor/PredictionTower/conv2d_0/separable_conv2d_3_weights", "op": "Const", "attr": {"dtype": {"type": "DT_FLOAT"}, "value": {"tensor": {"dtype": "DT_FLOAT", "tensorShape": {"dim": [{"size": "1"}, {"size": "1"}, {"size": "128"}, {"size": "128"}]}}}}}, {"name": "StatefulPartitionedCall/WeightSharedConvolutionalBoxPredictor/PredictionTower/conv2d_0/separable_conv2d_3_bn_offset", "op": "Const", "attr": {"dtype": {"type": "DT_FLOAT"}, "value": {"tensor": {"dtype": "DT_FLOAT", "tensorShape": {"dim": [{"size": "128"}]}}}}}, {"name": "StatefulPartitionedCall/ssd_mobile_net_v2fpn_keras_feature_extractor/bottom_up_Conv2d_21_depthwise_conv/separable_conv2d_weights", "op": "Const", "attr": {"dtype": {"type": "DT_FLOAT"}, "value": {"tensor": {"dtype": "DT_FLOAT", "tensorShape": {"dim": [{"size": "1"}, {"size": "1"}, {"size": "128"}, {"size": "128"}]}}}}}, {"name": "StatefulPartitionedCall/ssd_mobile_net_v2fpn_keras_feature_extractor/bottom_up_Conv2d_21_depthwise_conv/separable_conv2d_bn_offset", "op": "Const", "attr": {"dtype": {"type": "DT_FLOAT"}, "value": {"tensor": {"dtype": "DT_FLOAT", "tensorShape": {"dim": [{"size": "128"}]}}}}}, {"name": "StatefulPartitionedCall/WeightSharedConvolutionalBoxPredictor/PredictionTower/conv2d_0/separable_conv2d_1_weights", "op": "Const", "attr": {"dtype": {"type": "DT_FLOAT"}, "value": {"tensor": {"dtype": "DT_FLOAT", "tensorShape": {"dim": [{"size": "1"}, {"size": "1"}, {"size": "128"}, {"size": "128"}]}}}}}, {"name": "StatefulPartitionedCall/WeightSharedConvolutionalBoxPredictor/PredictionTower/conv2d_0/separable_conv2d_1_bn_offset", "op": "Const", "attr": {"dtype": {"type": "DT_FLOAT"}, "value": {"tensor": {"dtype": "DT_FLOAT", "tensorShape": {"dim": [{"size": "128"}]}}}}}, {"name": "StatefulPartitionedCall/WeightSharedConvolutionalBoxPredictor/PredictionTower/conv2d_2/separable_conv2d_2_weights", "op": "Const", "attr": {"dtype": {"type": "DT_FLOAT"}, "value": {"tensor": {"dtype": "DT_FLOAT", "tensorShape": {"dim": [{"size": "1"}, {"size": "1"}, {"size": "128"}, {"size": "128"}]}}}}}, {"name": "StatefulPartitionedCall/WeightSharedConvolutionalBoxPredictor/PredictionTower/conv2d_2/separable_conv2d_2_bn_offset", "op": "Const", "attr": {"dtype": {"type": "DT_FLOAT"}, "value": {"tensor": {"dtype": "DT_FLOAT", "tensorShape": {"dim": [{"size": "128"}]}}}}}, {"name": "StatefulPartitionedCall/WeightSharedConvolutionalBoxPredictor/PredictionTower/conv2d_1/separable_conv2d_3_weights", "op": "Const", "attr": {"dtype": {"type": "DT_FLOAT"}, "value": {"tensor": {"dtype": "DT_FLOAT", "tensorShape": {"dim": [{"size": "1"}, {"size": "1"}, {"size": "128"}, {"size": "128"}]}}}}}, {"name": "StatefulPartitionedCall/WeightSharedConvolutionalBoxPredictor/PredictionTower/conv2d_1/separable_conv2d_3_bn_offset", "op": "Const", "attr": {"dtype": {"type": "DT_FLOAT"}, "value": {"tensor": {"dtype": "DT_FLOAT", "tensorShape": {"dim": [{"size": "128"}]}}}}}, {"name": "StatefulPartitionedCall/WeightSharedConvolutionalBoxPredictor/PredictionTower/conv2d_0/separable_conv2d_4_weights", "op": "Const", "attr": {"dtype": {"type": "DT_FLOAT"}, "value": {"tensor": {"dtype": "DT_FLOAT", "tensorShape": {"dim": [{"size": "1"}, {"size": "1"}, {"size": "128"}, {"size": "128"}]}}}}}, {"name": "StatefulPartitionedCall/WeightSharedConvolutionalBoxPredictor/PredictionTower/conv2d_0/separable_conv2d_4_bn_offset", "op": "Const", "attr": {"dtype": {"type": "DT_FLOAT"}, "value": {"tensor": {"dtype": "DT_FLOAT", "tensorShape": {"dim": [{"size": "128"}]}}}}}, {"name": "StatefulPartitionedCall/ssd_mobile_net_v2fpn_keras_feature_extractor/FeatureMaps/top_down/smoothing_1_depthwise_conv/separable_conv2d_weights", "op": "Const", "attr": {"dtype": {"type": "DT_FLOAT"}, "value": {"tensor": {"dtype": "DT_FLOAT", "tensorShape": {"dim": [{"size": "1"}, {"size": "1"}, {"size": "128"}, {"size": "128"}]}}}}}, {"name": "StatefulPartitionedCall/ssd_mobile_net_v2fpn_keras_feature_extractor/FeatureMaps/top_down/smoothing_1_depthwise_conv/separable_conv2d_bn_offset", "op": "Const", "attr": {"dtype": {"type": "DT_FLOAT"}, "value": {"tensor": {"dtype": "DT_FLOAT", "tensorShape": {"dim": [{"size": "128"}]}}}}}, {"name": "StatefulPartitionedCall/WeightSharedConvolutionalBoxPredictor/PredictionTower/conv2d_1/separable_conv2d_1_weights", "op": "Const", "attr": {"dtype": {"type": "DT_FLOAT"}, "value": {"tensor": {"dtype": "DT_FLOAT", "tensorShape": {"dim": [{"size": "1"}, {"size": "1"}, {"size": "128"}, {"size": "128"}]}}}}}, {"name": "StatefulPartitionedCall/WeightSharedConvolutionalBoxPredictor/PredictionTower/conv2d_1/separable_conv2d_1_bn_offset", "op": "Const", "attr": {"dtype": {"type": "DT_FLOAT"}, "value": {"tensor": {"dtype": "DT_FLOAT", "tensorShape": {"dim": [{"size": "128"}]}}}}}, {"name": "StatefulPartitionedCall/WeightSharedConvolutionalBoxPredictor/PredictionTower/conv2d_3/separable_conv2d_2_weights", "op": "Const", "attr": {"dtype": {"type": "DT_FLOAT"}, "value": {"tensor": {"dtype": "DT_FLOAT", "tensorShape": {"dim": [{"size": "1"}, {"size": "1"}, {"size": "128"}, {"size": "128"}]}}}}}, {"name": "StatefulPartitionedCall/WeightSharedConvolutionalBoxPredictor/PredictionTower/conv2d_3/separable_conv2d_2_bn_offset", "op": "Const", "attr": {"dtype": {"type": "DT_FLOAT"}, "value": {"tensor": {"dtype": "DT_FLOAT", "tensorShape": {"dim": [{"size": "128"}]}}}}}, {"name": "StatefulPartitionedCall/WeightSharedConvolutionalBoxPredictor/PredictionTower/conv2d_2/separable_conv2d_3_weights", "op": "Const", "attr": {"dtype": {"type": "DT_FLOAT"}, "value": {"tensor": {"dtype": "DT_FLOAT", "tensorShape": {"dim": [{"size": "1"}, {"size": "1"}, {"size": "128"}, {"size": "128"}]}}}}}, {"name": "StatefulPartitionedCall/WeightSharedConvolutionalBoxPredictor/PredictionTower/conv2d_2/separable_conv2d_3_bn_offset", "op": "Const", "attr": {"value": {"tensor": {"dtype": "DT_FLOAT", "tensorShape": {"dim": [{"size": "128"}]}}}, "dtype": {"type": "DT_FLOAT"}}}, {"name": "StatefulPartitionedCall/WeightSharedConvolutionalBoxPredictor/PredictionTower/conv2d_1/separable_conv2d_4_weights", "op": "Const", "attr": {"dtype": {"type": "DT_FLOAT"}, "value": {"tensor": {"dtype": "DT_FLOAT", "tensorShape": {"dim": [{"size": "1"}, {"size": "1"}, {"size": "128"}, {"size": "128"}]}}}}}, {"name": "StatefulPartitionedCall/WeightSharedConvolutionalBoxPredictor/PredictionTower/conv2d_1/separable_conv2d_4_bn_offset", "op": "Const", "attr": {"dtype": {"type": "DT_FLOAT"}, "value": {"tensor": {"dtype": "DT_FLOAT", "tensorShape": {"dim": [{"size": "128"}]}}}}}, {"name": "StatefulPartitionedCall/WeightSharedConvolutionalBoxPredictor/PredictionTower/conv2d_0/separable_conv2d_weights", "op": "Const", "attr": {"dtype": {"type": "DT_FLOAT"}, "value": {"tensor": {"dtype": "DT_FLOAT", "tensorShape": {"dim": [{"size": "1"}, {"size": "1"}, {"size": "128"}, {"size": "128"}]}}}}}, {"name": "StatefulPartitionedCall/WeightSharedConvolutionalBoxPredictor/PredictionTower/conv2d_0/separable_conv2d_bn_offset", "op": "Const", "attr": {"value": {"tensor": {"dtype": "DT_FLOAT", "tensorShape": {"dim": [{"size": "128"}]}}}, "dtype": {"type": "DT_FLOAT"}}}, {"name": "StatefulPartitionedCall/WeightSharedConvolutionalBoxPredictor/PredictionTower/conv2d_2/separable_conv2d_1_weights", "op": "Const", "attr": {"value": {"tensor": {"dtype": "DT_FLOAT", "tensorShape": {"dim": [{"size": "1"}, {"size": "1"}, {"size": "128"}, {"size": "128"}]}}}, "dtype": {"type": "DT_FLOAT"}}}, {"name": "StatefulPartitionedCall/WeightSharedConvolutionalBoxPredictor/PredictionTower/conv2d_2/separable_conv2d_1_bn_offset", "op": "Const", "attr": {"value": {"tensor": {"dtype": "DT_FLOAT", "tensorShape": {"dim": [{"size": "128"}]}}}, "dtype": {"type": "DT_FLOAT"}}}, {"name": "StatefulPartitionedCall/WeightSharedConvolutionalBoxPredictor/PredictionTower/conv2d_3/separable_conv2d_3_weights", "op": "Const", "attr": {"value": {"tensor": {"dtype": "DT_FLOAT", "tensorShape": {"dim": [{"size": "1"}, {"size": "1"}, {"size": "128"}, {"size": "128"}]}}}, "dtype": {"type": "DT_FLOAT"}}}, {"name": "StatefulPartitionedCall/WeightSharedConvolutionalBoxPredictor/PredictionTower/conv2d_3/separable_conv2d_3_bn_offset", "op": "Const", "attr": {"value": {"tensor": {"dtype": "DT_FLOAT", "tensorShape": {"dim": [{"size": "128"}]}}}, "dtype": {"type": "DT_FLOAT"}}}, {"name": "StatefulPartitionedCall/WeightSharedConvolutionalBoxPredictor/PredictionTower/conv2d_2/separable_conv2d_4_weights", "op": "Const", "attr": {"value": {"tensor": {"dtype": "DT_FLOAT", "tensorShape": {"dim": [{"size": "1"}, {"size": "1"}, {"size": "128"}, {"size": "128"}]}}}, "dtype": {"type": "DT_FLOAT"}}}, {"name": "StatefulPartitionedCall/WeightSharedConvolutionalBoxPredictor/PredictionTower/conv2d_2/separable_conv2d_4_bn_offset", "op": "Const", "attr": {"value": {"tensor": {"dtype": "DT_FLOAT", "tensorShape": {"dim": [{"size": "128"}]}}}, "dtype": {"type": "DT_FLOAT"}}}, {"name": "StatefulPartitionedCall/WeightSharedConvolutionalBoxPredictor/PredictionTower/conv2d_1/separable_conv2d_weights", "op": "Const", "attr": {"value": {"tensor": {"dtype": "DT_FLOAT", "tensorShape": {"dim": [{"size": "1"}, {"size": "1"}, {"size": "128"}, {"size": "128"}]}}}, "dtype": {"type": "DT_FLOAT"}}}, {"name": "StatefulPartitionedCall/WeightSharedConvolutionalBoxPredictor/PredictionTower/conv2d_1/separable_conv2d_bn_offset", "op": "Const", "attr": {"dtype": {"type": "DT_FLOAT"}, "value": {"tensor": {"dtype": "DT_FLOAT", "tensorShape": {"dim": [{"size": "128"}]}}}}}, {"name": "StatefulPartitionedCall/WeightSharedConvolutionalBoxPredictor/PredictionTower/conv2d_3/separable_conv2d_1_weights", "op": "Const", "attr": {"dtype": {"type": "DT_FLOAT"}, "value": {"tensor": {"dtype": "DT_FLOAT", "tensorShape": {"dim": [{"size": "1"}, {"size": "1"}, {"size": "128"}, {"size": "128"}]}}}}}, {"name": "StatefulPartitionedCall/WeightSharedConvolutionalBoxPredictor/PredictionTower/conv2d_3/separable_conv2d_1_bn_offset", "op": "Const", "attr": {"dtype": {"type": "DT_FLOAT"}, "value": {"tensor": {"dtype": "DT_FLOAT", "tensorShape": {"dim": [{"size": "128"}]}}}}}, {"name": "StatefulPartitionedCall/WeightSharedConvolutionalBoxPredictor/PredictionTower/conv2d_3/separable_conv2d_4_weights", "op": "Const", "attr": {"dtype": {"type": "DT_FLOAT"}, "value": {"tensor": {"dtype": "DT_FLOAT", "tensorShape": {"dim": [{"size": "1"}, {"size": "1"}, {"size": "128"}, {"size": "128"}]}}}}}, {"name": "StatefulPartitionedCall/WeightSharedConvolutionalBoxPredictor/PredictionTower/conv2d_3/separable_conv2d_4_bn_offset", "op": "Const", "attr": {"dtype": {"type": "DT_FLOAT"}, "value": {"tensor": {"dtype": "DT_FLOAT", "tensorShape": {"dim": [{"size": "128"}]}}}}}, {"name": "StatefulPartitionedCall/WeightSharedConvolutionalBoxPredictor/PredictionTower/conv2d_2/separable_conv2d_weights", "op": "Const", "attr": {"value": {"tensor": {"dtype": "DT_FLOAT", "tensorShape": {"dim": [{"size": "1"}, {"size": "1"}, {"size": "128"}, {"size": "128"}]}}}, "dtype": {"type": "DT_FLOAT"}}}, {"name": "StatefulPartitionedCall/WeightSharedConvolutionalBoxPredictor/PredictionTower/conv2d_2/separable_conv2d_bn_offset", "op": "Const", "attr": {"dtype": {"type": "DT_FLOAT"}, "value": {"tensor": {"dtype": "DT_FLOAT", "tensorShape": {"dim": [{"size": "128"}]}}}}}, {"name": "StatefulPartitionedCall/WeightSharedConvolutionalBoxPredictor/PredictionTower/conv2d_3/separable_conv2d_weights", "op": "Const", "attr": {"dtype": {"type": "DT_FLOAT"}, "value": {"tensor": {"dtype": "DT_FLOAT", "tensorShape": {"dim": [{"size": "1"}, {"size": "1"}, {"size": "128"}, {"size": "128"}]}}}}}, {"name": "StatefulPartitionedCall/WeightSharedConvolutionalBoxPredictor/PredictionTower/conv2d_3/separable_conv2d_bn_offset", "op": "Const", "attr": {"value": {"tensor": {"dtype": "DT_FLOAT", "tensorShape": {"dim": [{"size": "128"}]}}}, "dtype": {"type": "DT_FLOAT"}}}, {"name": "StatefulPartitionedCall/Cast", "op": "Cast", "input": ["input_tensor"], "attr": {"Truncate": {"b": false}, "SrcT": {"type": "DT_UINT8"}, "DstT": {"type": "DT_FLOAT"}}}, {"name": "StatefulPartitionedCall/Preprocessor/mul", "op": "Mul", "input": ["StatefulPartitionedCall/Preprocessor/mul/x", "StatefulPartitionedCall/Cast"], "attr": {"T": {"type": "DT_FLOAT"}}}, {"name": "StatefulPartitionedCall/Preprocessor/sub", "op": "Sub", "input": ["StatefulPartitionedCall/Preprocessor/mul", "StatefulPartitionedCall/Preprocessor/sub/y"], "attr": {"T": {"type": "DT_FLOAT"}}}, {"name": "StatefulPartitionedCall/Preprocessor/unstack", "op": "Unpack", "input": ["StatefulPartitionedCall/Preprocessor/sub"], "attr": {"axis": {"i": "0"}, "T": {"type": "DT_FLOAT"}, "num": {"i": "1"}}}, {"name": "StatefulPartitionedCall/Preprocessor/ResizeImage/resize/ExpandDims", "op": "ExpandDims", "input": ["StatefulPartitionedCall/Preprocessor/unstack", "StatefulPartitionedCall/Preprocessor/ResizeImage/resize/ExpandDims/dim"], "attr": {"Tdim": {"type": "DT_INT32"}, "T": {"type": "DT_FLOAT"}}}, {"name": "StatefulPartitionedCall/Preprocessor/ResizeImage/resize/ResizeBilinear", "op": "ResizeBilinear", "input": ["StatefulPartitionedCall/Preprocessor/ResizeImage/resize/ExpandDims", "StatefulPartitionedCall/Preprocessor/ResizeImage/stack"], "attr": {"align_corners": {"b": false}, "half_pixel_centers": {"b": false}, "T": {"type": "DT_FLOAT"}}}, {"name": "StatefulPartitionedCall/Preprocessor/ResizeImage/resize/Squeeze", "op": "Squeeze", "input": ["StatefulPartitionedCall/Preprocessor/ResizeImage/resize/ResizeBilinear"], "attr": {"squeeze_dims": {"list": {"i": ["0"]}}, "T": {"type": "DT_FLOAT"}}}, {"name": "ConstantFolding/StatefulPartitionedCall/Preprocessor/stack_const_axis", "op": "Const", "input": ["^StatefulPartitionedCall/Preprocessor/ResizeImage/resize/Squeeze"], "attr": {"value": {"tensor": {"dtype": "DT_INT32", "tensorShape": {}}}, "dtype": {"type": "DT_INT32"}}}, {"name": "StatefulPartitionedCall/Preprocessor/stack", "op": "ExpandDims", "input": ["StatefulPartitionedCall/Preprocessor/ResizeImage/resize/Squeeze", "ConstantFolding/StatefulPartitionedCall/Preprocessor/stack_const_axis"], "attr": {"Tdim": {"type": "DT_INT32"}, "T": {"type": "DT_FLOAT"}}}, {"name": "StatefulPartitionedCall/ssd_mobile_net_v2fpn_keras_feature_extractor/functional_1/Conv1_relu/Relu6", "op": "_FusedConv2D", "input": ["StatefulPartitionedCall/Preprocessor/stack", "StatefulPartitionedCall/ssd_mobile_net_v2fpn_keras_feature_extractor/functional_1/Conv1/Conv2D_weights", "StatefulPartitionedCall/ssd_mobile_net_v2fpn_keras_feature_extractor/functional_1/Conv1/Conv2D_bn_offset"], "device": "/device:CPU:0", "attr": {"padding": {"s": "U0FNRQ=="}, "num_args": {"i": "1"}, "epsilon": {"f": 0.0}, "use_cudnn_on_gpu": {"b": true}, "explicit_paddings": {"list": {}}, "T": {"type": "DT_FLOAT"}, "data_format": {"s": "TkhXQw=="}, "dilations": {"list": {"i": ["1", "1", "1", "1"]}}, "fused_ops": {"list": {"s": ["Qmlhc0FkZA==", "UmVsdTY="]}}, "strides": {"list": {"i": ["1", "2", "2", "1"]}}}}, {"name": "StatefulPartitionedCall/ssd_mobile_net_v2fpn_keras_feature_extractor/functional_1/expanded_conv_depthwise/depthwise", "op": "FusedDepthwiseConv2dNative", "input": ["StatefulPartitionedCall/ssd_mobile_net_v2fpn_keras_feature_extractor/functional_1/Conv1_relu/Relu6", "StatefulPartitionedCall/ssd_mobile_net_v2fpn_keras_feature_extractor/functional_1/expanded_conv_depthwise/depthwise_weights", "StatefulPartitionedCall/ssd_mobile_net_v2fpn_keras_feature_extractor/functional_1/expanded_conv_depthwise/depthwise_bn_offset"], "attr": {"T": {"type": "DT_FLOAT"}, "data_format": {"s": "TkhXQw=="}, "dilations": {"list": {"i": ["1", "1", "1", "1"]}}, "fused_ops": {"list": {"s": ["Qmlhc0FkZA==", "UmVsdTY="]}}, "strides": {"list": {"i": ["1", "1", "1", "1"]}}, "padding": {"s": "U0FNRQ=="}, "num_args": {"i": "1"}, "explicit_paddings": {"list": {}}}}, {"name": "StatefulPartitionedCall/ssd_mobile_net_v2fpn_keras_feature_extractor/functional_1/expanded_conv_project_BN/FusedBatchNormV3", "op": "_FusedConv2D", "input": ["StatefulPartitionedCall/ssd_mobile_net_v2fpn_keras_feature_extractor/functional_1/expanded_conv_depthwise/depthwise", "StatefulPartitionedCall/ssd_mobile_net_v2fpn_keras_feature_extractor/functional_1/expanded_conv_project/Conv2D_weights", "StatefulPartitionedCall/ssd_mobile_net_v2fpn_keras_feature_extractor/functional_1/expanded_conv_project/Conv2D_bn_offset"], "device": "/device:CPU:0", "attr": {"T": {"type": "DT_FLOAT"}, "data_format": {"s": "TkhXQw=="}, "dilations": {"list": {"i": ["1", "1", "1", "1"]}}, "fused_ops": {"list": {"s": ["Qmlhc0FkZA=="]}}, "padding": {"s": "U0FNRQ=="}, "strides": {"list": {"i": ["1", "1", "1", "1"]}}, "use_cudnn_on_gpu": {"b": true}, "num_args": {"i": "1"}, "explicit_paddings": {"list": {}}, "epsilon": {"f": 0.0}}}, {"name": "StatefulPartitionedCall/ssd_mobile_net_v2fpn_keras_feature_extractor/functional_1/block_1_expand_relu/Relu6", "op": "_FusedConv2D", "input": ["StatefulPartitionedCall/ssd_mobile_net_v2fpn_keras_feature_extractor/functional_1/expanded_conv_project_BN/FusedBatchNormV3", "StatefulPartitionedCall/ssd_mobile_net_v2fpn_keras_feature_extractor/functional_1/block_1_expand/Conv2D_weights", "StatefulPartitionedCall/ssd_mobile_net_v2fpn_keras_feature_extractor/functional_1/block_1_expand/Conv2D_bn_offset"], "device": "/device:CPU:0", "attr": {"padding": {"s": "U0FNRQ=="}, "num_args": {"i": "1"}, "epsilon": {"f": 0.0}, "use_cudnn_on_gpu": {"b": true}, "explicit_paddings": {"list": {}}, "T": {"type": "DT_FLOAT"}, "data_format": {"s": "TkhXQw=="}, "dilations": {"list": {"i": ["1", "1", "1", "1"]}}, "fused_ops": {"list": {"s": ["Qmlhc0FkZA==", "UmVsdTY="]}}, "strides": {"list": {"i": ["1", "1", "1", "1"]}}}}, {"name": "StatefulPartitionedCall/ssd_mobile_net_v2fpn_keras_feature_extractor/functional_1/block_1_depthwise/depthwise", "op": "FusedDepthwiseConv2dNative", "input": ["StatefulPartitionedCall/ssd_mobile_net_v2fpn_keras_feature_extractor/functional_1/block_1_expand_relu/Relu6", "StatefulPartitionedCall/ssd_mobile_net_v2fpn_keras_feature_extractor/functional_1/block_1_depthwise/depthwise_weights", "StatefulPartitionedCall/ssd_mobile_net_v2fpn_keras_feature_extractor/functional_1/block_1_depthwise/depthwise_bn_offset"], "attr": {"padding": {"s": "U0FNRQ=="}, "num_args": {"i": "1"}, "explicit_paddings": {"list": {}}, "T": {"type": "DT_FLOAT"}, "data_format": {"s": "TkhXQw=="}, "dilations": {"list": {"i": ["1", "1", "1", "1"]}}, "fused_ops": {"list": {"s": ["Qmlhc0FkZA==", "UmVsdTY="]}}, "strides": {"list": {"i": ["1", "2", "2", "1"]}}}}, {"name": "StatefulPartitionedCall/ssd_mobile_net_v2fpn_keras_feature_extractor/functional_1/block_1_project_BN/FusedBatchNormV3", "op": "_FusedConv2D", "input": ["StatefulPartitionedCall/ssd_mobile_net_v2fpn_keras_feature_extractor/functional_1/block_1_depthwise/depthwise", "StatefulPartitionedCall/ssd_mobile_net_v2fpn_keras_feature_extractor/functional_1/block_1_project/Conv2D_weights", "StatefulPartitionedCall/ssd_mobile_net_v2fpn_keras_feature_extractor/functional_1/block_1_project/Conv2D_bn_offset"], "device": "/device:CPU:0", "attr": {"padding": {"s": "U0FNRQ=="}, "num_args": {"i": "1"}, "epsilon": {"f": 0.0}, "use_cudnn_on_gpu": {"b": true}, "explicit_paddings": {"list": {}}, "T": {"type": "DT_FLOAT"}, "data_format": {"s": "TkhXQw=="}, "dilations": {"list": {"i": ["1", "1", "1", "1"]}}, "fused_ops": {"list": {"s": ["Qmlhc0FkZA=="]}}, "strides": {"list": {"i": ["1", "1", "1", "1"]}}}}, {"name": "StatefulPartitionedCall/ssd_mobile_net_v2fpn_keras_feature_extractor/functional_1/block_2_expand_relu/Relu6", "op": "_FusedConv2D", "input": ["StatefulPartitionedCall/ssd_mobile_net_v2fpn_keras_feature_extractor/functional_1/block_1_project_BN/FusedBatchNormV3", "StatefulPartitionedCall/ssd_mobile_net_v2fpn_keras_feature_extractor/functional_1/block_2_expand/Conv2D_weights", "StatefulPartitionedCall/ssd_mobile_net_v2fpn_keras_feature_extractor/functional_1/block_2_expand/Conv2D_bn_offset"], "device": "/device:CPU:0", "attr": {"fused_ops": {"list": {"s": ["Qmlhc0FkZA==", "UmVsdTY="]}}, "padding": {"s": "U0FNRQ=="}, "data_format": {"s": "TkhXQw=="}, "dilations": {"list": {"i": ["1", "1", "1", "1"]}}, "strides": {"list": {"i": ["1", "1", "1", "1"]}}, "use_cudnn_on_gpu": {"b": true}, "T": {"type": "DT_FLOAT"}, "num_args": {"i": "1"}, "explicit_paddings": {"list": {}}, "epsilon": {"f": 0.0}}}, {"name": "StatefulPartitionedCall/ssd_mobile_net_v2fpn_keras_feature_extractor/functional_1/block_2_depthwise/depthwise", "op": "FusedDepthwiseConv2dNative", "input": ["StatefulPartitionedCall/ssd_mobile_net_v2fpn_keras_feature_extractor/functional_1/block_2_expand_relu/Relu6", "StatefulPartitionedCall/ssd_mobile_net_v2fpn_keras_feature_extractor/functional_1/block_2_depthwise/depthwise_weights", "StatefulPartitionedCall/ssd_mobile_net_v2fpn_keras_feature_extractor/functional_1/block_2_depthwise/depthwise_bn_offset"], "attr": {"fused_ops": {"list": {"s": ["Qmlhc0FkZA==", "UmVsdTY="]}}, "padding": {"s": "U0FNRQ=="}, "data_format": {"s": "TkhXQw=="}, "dilations": {"list": {"i": ["1", "1", "1", "1"]}}, "strides": {"list": {"i": ["1", "1", "1", "1"]}}, "T": {"type": "DT_FLOAT"}, "num_args": {"i": "1"}, "explicit_paddings": {"list": {}}}}, {"name": "StatefulPartitionedCall/ssd_mobile_net_v2fpn_keras_feature_extractor/functional_1/block_2_project_BN/FusedBatchNormV3", "op": "_FusedConv2D", "input": ["StatefulPartitionedCall/ssd_mobile_net_v2fpn_keras_feature_extractor/functional_1/block_2_depthwise/depthwise", "StatefulPartitionedCall/ssd_mobile_net_v2fpn_keras_feature_extractor/functional_1/block_2_project/Conv2D_weights", "StatefulPartitionedCall/ssd_mobile_net_v2fpn_keras_feature_extractor/functional_1/block_2_project/Conv2D_bn_offset"], "device": "/device:CPU:0", "attr": {"fused_ops": {"list": {"s": ["Qmlhc0FkZA=="]}}, "padding": {"s": "U0FNRQ=="}, "data_format": {"s": "TkhXQw=="}, "dilations": {"list": {"i": ["1", "1", "1", "1"]}}, "strides": {"list": {"i": ["1", "1", "1", "1"]}}, "use_cudnn_on_gpu": {"b": true}, "T": {"type": "DT_FLOAT"}, "num_args": {"i": "1"}, "explicit_paddings": {"list": {}}, "epsilon": {"f": 0.0}}}, {"name": "StatefulPartitionedCall/ssd_mobile_net_v2fpn_keras_feature_extractor/functional_1/block_2_add/add", "op": "AddV2", "input": ["StatefulPartitionedCall/ssd_mobile_net_v2fpn_keras_feature_extractor/functional_1/block_1_project_BN/FusedBatchNormV3", "StatefulPartitionedCall/ssd_mobile_net_v2fpn_keras_feature_extractor/functional_1/block_2_project_BN/FusedBatchNormV3"], "attr": {"T": {"type": "DT_FLOAT"}}}, {"name": "StatefulPartitionedCall/ssd_mobile_net_v2fpn_keras_feature_extractor/functional_1/block_3_expand_relu/Relu6", "op": "_FusedConv2D", "input": ["StatefulPartitionedCall/ssd_mobile_net_v2fpn_keras_feature_extractor/functional_1/block_2_add/add", "StatefulPartitionedCall/ssd_mobile_net_v2fpn_keras_feature_extractor/functional_1/block_3_expand/Conv2D_weights", "StatefulPartitionedCall/ssd_mobile_net_v2fpn_keras_feature_extractor/functional_1/block_3_expand/Conv2D_bn_offset"], "device": "/device:CPU:0", "attr": {"strides": {"list": {"i": ["1", "1", "1", "1"]}}, "T": {"type": "DT_FLOAT"}, "num_args": {"i": "1"}, "epsilon": {"f": 0.0}, "use_cudnn_on_gpu": {"b": true}, "explicit_paddings": {"list": {}}, "fused_ops": {"list": {"s": ["Qmlhc0FkZA==", "UmVsdTY="]}}, "data_format": {"s": "TkhXQw=="}, "padding": {"s": "U0FNRQ=="}, "dilations": {"list": {"i": ["1", "1", "1", "1"]}}}}, {"name": "StatefulPartitionedCall/ssd_mobile_net_v2fpn_keras_feature_extractor/functional_1/block_3_depthwise/depthwise", "op": "FusedDepthwiseConv2dNative", "input": ["StatefulPartitionedCall/ssd_mobile_net_v2fpn_keras_feature_extractor/functional_1/block_3_expand_relu/Relu6", "StatefulPartitionedCall/ssd_mobile_net_v2fpn_keras_feature_extractor/functional_1/block_3_depthwise/depthwise_weights", "StatefulPartitionedCall/ssd_mobile_net_v2fpn_keras_feature_extractor/functional_1/block_3_depthwise/depthwise_bn_offset"], "attr": {"fused_ops": {"list": {"s": ["Qmlhc0FkZA==", "UmVsdTY="]}}, "T": {"type": "DT_FLOAT"}, "padding": {"s": "U0FNRQ=="}, "num_args": {"i": "1"}, "explicit_paddings": {"list": {}}, "data_format": {"s": "TkhXQw=="}, "dilations": {"list": {"i": ["1", "1", "1", "1"]}}, "strides": {"list": {"i": ["1", "2", "2", "1"]}}}}, {"name": "StatefulPartitionedCall/ssd_mobile_net_v2fpn_keras_feature_extractor/functional_1/block_3_project_BN/FusedBatchNormV3", "op": "_FusedConv2D", "input": ["StatefulPartitionedCall/ssd_mobile_net_v2fpn_keras_feature_extractor/functional_1/block_3_depthwise/depthwise", "StatefulPartitionedCall/ssd_mobile_net_v2fpn_keras_feature_extractor/functional_1/block_3_project/Conv2D_weights", "StatefulPartitionedCall/ssd_mobile_net_v2fpn_keras_feature_extractor/functional_1/block_3_project/Conv2D_bn_offset"], "device": "/device:CPU:0", "attr": {"strides": {"list": {"i": ["1", "1", "1", "1"]}}, "T": {"type": "DT_FLOAT"}, "num_args": {"i": "1"}, "epsilon": {"f": 0.0}, "use_cudnn_on_gpu": {"b": true}, "explicit_paddings": {"list": {}}, "fused_ops": {"list": {"s": ["Qmlhc0FkZA=="]}}, "data_format": {"s": "TkhXQw=="}, "padding": {"s": "U0FNRQ=="}, "dilations": {"list": {"i": ["1", "1", "1", "1"]}}}}, {"name": "StatefulPartitionedCall/ssd_mobile_net_v2fpn_keras_feature_extractor/functional_1/block_4_expand_relu/Relu6", "op": "_FusedConv2D", "input": ["StatefulPartitionedCall/ssd_mobile_net_v2fpn_keras_feature_extractor/functional_1/block_3_project_BN/FusedBatchNormV3", "StatefulPartitionedCall/ssd_mobile_net_v2fpn_keras_feature_extractor/functional_1/block_4_expand/Conv2D_weights", "StatefulPartitionedCall/ssd_mobile_net_v2fpn_keras_feature_extractor/functional_1/block_4_expand/Conv2D_bn_offset"], "device": "/device:CPU:0", "attr": {"fused_ops": {"list": {"s": ["Qmlhc0FkZA==", "UmVsdTY="]}}, "epsilon": {"f": 0.0}, "T": {"type": "DT_FLOAT"}, "use_cudnn_on_gpu": {"b": true}, "padding": {"s": "U0FNRQ=="}, "num_args": {"i": "1"}, "explicit_paddings": {"list": {}}, "data_format": {"s": "TkhXQw=="}, "dilations": {"list": {"i": ["1", "1", "1", "1"]}}, "strides": {"list": {"i": ["1", "1", "1", "1"]}}}}, {"name": "StatefulPartitionedCall/ssd_mobile_net_v2fpn_keras_feature_extractor/functional_1/block_4_depthwise/depthwise", "op": "FusedDepthwiseConv2dNative", "input": ["StatefulPartitionedCall/ssd_mobile_net_v2fpn_keras_feature_extractor/functional_1/block_4_expand_relu/Relu6", "StatefulPartitionedCall/ssd_mobile_net_v2fpn_keras_feature_extractor/functional_1/block_4_depthwise/depthwise_weights", "StatefulPartitionedCall/ssd_mobile_net_v2fpn_keras_feature_extractor/functional_1/block_4_depthwise/depthwise_bn_offset"], "attr": {"num_args": {"i": "1"}, "data_format": {"s": "TkhXQw=="}, "padding": {"s": "U0FNRQ=="}, "strides": {"list": {"i": ["1", "1", "1", "1"]}}, "explicit_paddings": {"list": {}}, "dilations": {"list": {"i": ["1", "1", "1", "1"]}}, "fused_ops": {"list": {"s": ["Qmlhc0FkZA==", "UmVsdTY="]}}, "T": {"type": "DT_FLOAT"}}}, {"name": "StatefulPartitionedCall/ssd_mobile_net_v2fpn_keras_feature_extractor/functional_1/block_4_project_BN/FusedBatchNormV3", "op": "_FusedConv2D", "input": ["StatefulPartitionedCall/ssd_mobile_net_v2fpn_keras_feature_extractor/functional_1/block_4_depthwise/depthwise", "StatefulPartitionedCall/ssd_mobile_net_v2fpn_keras_feature_extractor/functional_1/block_4_project/Conv2D_weights", "StatefulPartitionedCall/ssd_mobile_net_v2fpn_keras_feature_extractor/functional_1/block_4_project/Conv2D_bn_offset"], "device": "/device:CPU:0", "attr": {"fused_ops": {"list": {"s": ["Qmlhc0FkZA=="]}}, "epsilon": {"f": 0.0}, "T": {"type": "DT_FLOAT"}, "use_cudnn_on_gpu": {"b": true}, "padding": {"s": "U0FNRQ=="}, "num_args": {"i": "1"}, "explicit_paddings": {"list": {}}, "data_format": {"s": "TkhXQw=="}, "dilations": {"list": {"i": ["1", "1", "1", "1"]}}, "strides": {"list": {"i": ["1", "1", "1", "1"]}}}}, {"name": "StatefulPartitionedCall/ssd_mobile_net_v2fpn_keras_feature_extractor/functional_1/block_4_add/add", "op": "AddV2", "input": ["StatefulPartitionedCall/ssd_mobile_net_v2fpn_keras_feature_extractor/functional_1/block_3_project_BN/FusedBatchNormV3", "StatefulPartitionedCall/ssd_mobile_net_v2fpn_keras_feature_extractor/functional_1/block_4_project_BN/FusedBatchNormV3"], "attr": {"T": {"type": "DT_FLOAT"}}}, {"name": "StatefulPartitionedCall/ssd_mobile_net_v2fpn_keras_feature_extractor/functional_1/block_5_expand_relu/Relu6", "op": "_FusedConv2D", "input": ["StatefulPartitionedCall/ssd_mobile_net_v2fpn_keras_feature_extractor/functional_1/block_4_add/add", "StatefulPartitionedCall/ssd_mobile_net_v2fpn_keras_feature_extractor/functional_1/block_5_expand/Conv2D_weights", "StatefulPartitionedCall/ssd_mobile_net_v2fpn_keras_feature_extractor/functional_1/block_5_expand/Conv2D_bn_offset"], "device": "/device:CPU:0", "attr": {"num_args": {"i": "1"}, "use_cudnn_on_gpu": {"b": true}, "data_format": {"s": "TkhXQw=="}, "padding": {"s": "U0FNRQ=="}, "strides": {"list": {"i": ["1", "1", "1", "1"]}}, "explicit_paddings": {"list": {}}, "dilations": {"list": {"i": ["1", "1", "1", "1"]}}, "fused_ops": {"list": {"s": ["Qmlhc0FkZA==", "UmVsdTY="]}}, "T": {"type": "DT_FLOAT"}, "epsilon": {"f": 0.0}}}, {"name": "StatefulPartitionedCall/ssd_mobile_net_v2fpn_keras_feature_extractor/functional_1/block_5_depthwise/depthwise", "op": "FusedDepthwiseConv2dNative", "input": ["StatefulPartitionedCall/ssd_mobile_net_v2fpn_keras_feature_extractor/functional_1/block_5_expand_relu/Relu6", "StatefulPartitionedCall/ssd_mobile_net_v2fpn_keras_feature_extractor/functional_1/block_5_depthwise/depthwise_weights", "StatefulPartitionedCall/ssd_mobile_net_v2fpn_keras_feature_extractor/functional_1/block_5_depthwise/depthwise_bn_offset"], "attr": {"num_args": {"i": "1"}, "data_format": {"s": "TkhXQw=="}, "padding": {"s": "U0FNRQ=="}, "explicit_paddings": {"list": {}}, "strides": {"list": {"i": ["1", "1", "1", "1"]}}, "dilations": {"list": {"i": ["1", "1", "1", "1"]}}, "fused_ops": {"list": {"s": ["Qmlhc0FkZA==", "UmVsdTY="]}}, "T": {"type": "DT_FLOAT"}}}, {"name": "StatefulPartitionedCall/ssd_mobile_net_v2fpn_keras_feature_extractor/functional_1/block_5_project_BN/FusedBatchNormV3", "op": "_FusedConv2D", "input": ["StatefulPartitionedCall/ssd_mobile_net_v2fpn_keras_feature_extractor/functional_1/block_5_depthwise/depthwise", "StatefulPartitionedCall/ssd_mobile_net_v2fpn_keras_feature_extractor/functional_1/block_5_project/Conv2D_weights", "StatefulPartitionedCall/ssd_mobile_net_v2fpn_keras_feature_extractor/functional_1/block_5_project/Conv2D_bn_offset"], "device": "/device:CPU:0", "attr": {"num_args": {"i": "1"}, "use_cudnn_on_gpu": {"b": true}, "data_format": {"s": "TkhXQw=="}, "padding": {"s": "U0FNRQ=="}, "strides": {"list": {"i": ["1", "1", "1", "1"]}}, "explicit_paddings": {"list": {}}, "dilations": {"list": {"i": ["1", "1", "1", "1"]}}, "fused_ops": {"list": {"s": ["Qmlhc0FkZA=="]}}, "T": {"type": "DT_FLOAT"}, "epsilon": {"f": 0.0}}}, {"name": "StatefulPartitionedCall/ssd_mobile_net_v2fpn_keras_feature_extractor/functional_1/block_5_add/add", "op": "AddV2", "input": ["StatefulPartitionedCall/ssd_mobile_net_v2fpn_keras_feature_extractor/functional_1/block_4_add/add", "StatefulPartitionedCall/ssd_mobile_net_v2fpn_keras_feature_extractor/functional_1/block_5_project_BN/FusedBatchNormV3"], "attr": {"T": {"type": "DT_FLOAT"}}}, {"name": "StatefulPartitionedCall/ssd_mobile_net_v2fpn_keras_feature_extractor/FeatureMaps/top_down/projection_1/BiasAdd", "op": "_FusedConv2D", "input": ["StatefulPartitionedCall/ssd_mobile_net_v2fpn_keras_feature_extractor/functional_1/block_5_add/add", "unknown_269", "unknown_270"], "device": "/device:CPU:0", "attr": {"T": {"type": "DT_FLOAT"}, "padding": {"s": "U0FNRQ=="}, "epsilon": {"f": 0.0}, "use_cudnn_on_gpu": {"b": true}, "num_args": {"i": "1"}, "explicit_paddings": {"list": {}}, "fused_ops": {"list": {"s": ["Qmlhc0FkZA=="]}}, "data_format": {"s": "TkhXQw=="}, "dilations": {"list": {"i": ["1", "1", "1", "1"]}}, "strides": {"list": {"i": ["1", "1", "1", "1"]}}}}, {"name": "StatefulPartitionedCall/ssd_mobile_net_v2fpn_keras_feature_extractor/functional_1/block_6_expand_relu/Relu6", "op": "_FusedConv2D", "input": ["StatefulPartitionedCall/ssd_mobile_net_v2fpn_keras_feature_extractor/functional_1/block_5_add/add", "StatefulPartitionedCall/ssd_mobile_net_v2fpn_keras_feature_extractor/functional_1/block_6_expand/Conv2D_weights", "StatefulPartitionedCall/ssd_mobile_net_v2fpn_keras_feature_extractor/functional_1/block_6_expand/Conv2D_bn_offset"], "device": "/device:CPU:0", "attr": {"T": {"type": "DT_FLOAT"}, "padding": {"s": "U0FNRQ=="}, "epsilon": {"f": 0.0}, "use_cudnn_on_gpu": {"b": true}, "num_args": {"i": "1"}, "explicit_paddings": {"list": {}}, "fused_ops": {"list": {"s": ["Qmlhc0FkZA==", "UmVsdTY="]}}, "data_format": {"s": "TkhXQw=="}, "dilations": {"list": {"i": ["1", "1", "1", "1"]}}, "strides": {"list": {"i": ["1", "1", "1", "1"]}}}}, {"name": "StatefulPartitionedCall/ssd_mobile_net_v2fpn_keras_feature_extractor/functional_1/block_6_depthwise/depthwise", "op": "FusedDepthwiseConv2dNative", "input": ["StatefulPartitionedCall/ssd_mobile_net_v2fpn_keras_feature_extractor/functional_1/block_6_expand_relu/Relu6", "StatefulPartitionedCall/ssd_mobile_net_v2fpn_keras_feature_extractor/functional_1/block_6_depthwise/depthwise_weights", "StatefulPartitionedCall/ssd_mobile_net_v2fpn_keras_feature_extractor/functional_1/block_6_depthwise/depthwise_bn_offset"], "attr": {"fused_ops": {"list": {"s": ["Qmlhc0FkZA==", "UmVsdTY="]}}, "num_args": {"i": "1"}, "data_format": {"s": "TkhXQw=="}, "explicit_paddings": {"list": {}}, "strides": {"list": {"i": ["1", "2", "2", "1"]}}, "dilations": {"list": {"i": ["1", "1", "1", "1"]}}, "T": {"type": "DT_FLOAT"}, "padding": {"s": "U0FNRQ=="}}}, {"name": "StatefulPartitionedCall/ssd_mobile_net_v2fpn_keras_feature_extractor/functional_1/block_6_project_BN/FusedBatchNormV3", "op": "_FusedConv2D", "input": ["StatefulPartitionedCall/ssd_mobile_net_v2fpn_keras_feature_extractor/functional_1/block_6_depthwise/depthwise", "StatefulPartitionedCall/ssd_mobile_net_v2fpn_keras_feature_extractor/functional_1/block_6_project/Conv2D_weights", "StatefulPartitionedCall/ssd_mobile_net_v2fpn_keras_feature_extractor/functional_1/block_6_project/Conv2D_bn_offset"], "device": "/device:CPU:0", "attr": {"epsilon": {"f": 0.0}, "padding": {"s": "U0FNRQ=="}, "strides": {"list": {"i": ["1", "1", "1", "1"]}}, "data_format": {"s": "TkhXQw=="}, "dilations": {"list": {"i": ["1", "1", "1", "1"]}}, "fused_ops": {"list": {"s": ["Qmlhc0FkZA=="]}}, "T": {"type": "DT_FLOAT"}, "use_cudnn_on_gpu": {"b": true}, "num_args": {"i": "1"}, "explicit_paddings": {"list": {}}}}, {"name": "StatefulPartitionedCall/ssd_mobile_net_v2fpn_keras_feature_extractor/functional_1/block_7_expand_relu/Relu6", "op": "_FusedConv2D", "input": ["StatefulPartitionedCall/ssd_mobile_net_v2fpn_keras_feature_extractor/functional_1/block_6_project_BN/FusedBatchNormV3", "StatefulPartitionedCall/ssd_mobile_net_v2fpn_keras_feature_extractor/functional_1/block_7_expand/Conv2D_weights", "StatefulPartitionedCall/ssd_mobile_net_v2fpn_keras_feature_extractor/functional_1/block_7_expand/Conv2D_bn_offset"], "device": "/device:CPU:0", "attr": {"epsilon": {"f": 0.0}, "fused_ops": {"list": {"s": ["Qmlhc0FkZA==", "UmVsdTY="]}}, "num_args": {"i": "1"}, "use_cudnn_on_gpu": {"b": true}, "data_format": {"s": "TkhXQw=="}, "strides": {"list": {"i": ["1", "1", "1", "1"]}}, "explicit_paddings": {"list": {}}, "dilations": {"list": {"i": ["1", "1", "1", "1"]}}, "T": {"type": "DT_FLOAT"}, "padding": {"s": "U0FNRQ=="}}}, {"name": "StatefulPartitionedCall/ssd_mobile_net_v2fpn_keras_feature_extractor/functional_1/block_7_depthwise/depthwise", "op": "FusedDepthwiseConv2dNative", "input": ["StatefulPartitionedCall/ssd_mobile_net_v2fpn_keras_feature_extractor/functional_1/block_7_expand_relu/Relu6", "StatefulPartitionedCall/ssd_mobile_net_v2fpn_keras_feature_extractor/functional_1/block_7_depthwise/depthwise_weights", "StatefulPartitionedCall/ssd_mobile_net_v2fpn_keras_feature_extractor/functional_1/block_7_depthwise/depthwise_bn_offset"], "attr": {"num_args": {"i": "1"}, "fused_ops": {"list": {"s": ["Qmlhc0FkZA==", "UmVsdTY="]}}, "data_format": {"s": "TkhXQw=="}, "explicit_paddings": {"list": {}}, "strides": {"list": {"i": ["1", "1", "1", "1"]}}, "dilations": {"list": {"i": ["1", "1", "1", "1"]}}, "T": {"type": "DT_FLOAT"}, "padding": {"s": "U0FNRQ=="}}}, {"name": "StatefulPartitionedCall/ssd_mobile_net_v2fpn_keras_feature_extractor/functional_1/block_7_project_BN/FusedBatchNormV3", "op": "_FusedConv2D", "input": ["StatefulPartitionedCall/ssd_mobile_net_v2fpn_keras_feature_extractor/functional_1/block_7_depthwise/depthwise", "StatefulPartitionedCall/ssd_mobile_net_v2fpn_keras_feature_extractor/functional_1/block_7_project/Conv2D_weights", "StatefulPartitionedCall/ssd_mobile_net_v2fpn_keras_feature_extractor/functional_1/block_7_project/Conv2D_bn_offset"], "device": "/device:CPU:0", "attr": {"epsilon": {"f": 0.0}, "padding": {"s": "U0FNRQ=="}, "strides": {"list": {"i": ["1", "1", "1", "1"]}}, "data_format": {"s": "TkhXQw=="}, "dilations": {"list": {"i": ["1", "1", "1", "1"]}}, "fused_ops": {"list": {"s": ["Qmlhc0FkZA=="]}}, "T": {"type": "DT_FLOAT"}, "use_cudnn_on_gpu": {"b": true}, "num_args": {"i": "1"}, "explicit_paddings": {"list": {}}}}, {"name": "StatefulPartitionedCall/ssd_mobile_net_v2fpn_keras_feature_extractor/functional_1/block_7_add/add", "op": "AddV2", "input": ["StatefulPartitionedCall/ssd_mobile_net_v2fpn_keras_feature_extractor/functional_1/block_6_project_BN/FusedBatchNormV3", "StatefulPartitionedCall/ssd_mobile_net_v2fpn_keras_feature_extractor/functional_1/block_7_project_BN/FusedBatchNormV3"], "attr": {"T": {"type": "DT_FLOAT"}}}, {"name": "StatefulPartitionedCall/ssd_mobile_net_v2fpn_keras_feature_extractor/functional_1/block_8_expand_relu/Relu6", "op": "_FusedConv2D", "input": ["StatefulPartitionedCall/ssd_mobile_net_v2fpn_keras_feature_extractor/functional_1/block_7_add/add", "StatefulPartitionedCall/ssd_mobile_net_v2fpn_keras_feature_extractor/functional_1/block_8_expand/Conv2D_weights", "StatefulPartitionedCall/ssd_mobile_net_v2fpn_keras_feature_extractor/functional_1/block_8_expand/Conv2D_bn_offset"], "device": "/device:CPU:0", "attr": {"strides": {"list": {"i": ["1", "1", "1", "1"]}}, "epsilon": {"f": 0.0}, "T": {"type": "DT_FLOAT"}, "fused_ops": {"list": {"s": ["Qmlhc0FkZA==", "UmVsdTY="]}}, "num_args": {"i": "1"}, "use_cudnn_on_gpu": {"b": true}, "data_format": {"s": "TkhXQw=="}, "explicit_paddings": {"list": {}}, "padding": {"s": "U0FNRQ=="}, "dilations": {"list": {"i": ["1", "1", "1", "1"]}}}}, {"name": "StatefulPartitionedCall/ssd_mobile_net_v2fpn_keras_feature_extractor/functional_1/block_8_depthwise/depthwise", "op": "FusedDepthwiseConv2dNative", "input": ["StatefulPartitionedCall/ssd_mobile_net_v2fpn_keras_feature_extractor/functional_1/block_8_expand_relu/Relu6", "StatefulPartitionedCall/ssd_mobile_net_v2fpn_keras_feature_extractor/functional_1/block_8_depthwise/depthwise_weights", "StatefulPartitionedCall/ssd_mobile_net_v2fpn_keras_feature_extractor/functional_1/block_8_depthwise/depthwise_bn_offset"], "attr": {"num_args": {"i": "1"}, "explicit_paddings": {"list": {}}, "fused_ops": {"list": {"s": ["Qmlhc0FkZA==", "UmVsdTY="]}}, "data_format": {"s": "TkhXQw=="}, "dilations": {"list": {"i": ["1", "1", "1", "1"]}}, "strides": {"list": {"i": ["1", "1", "1", "1"]}}, "T": {"type": "DT_FLOAT"}, "padding": {"s": "U0FNRQ=="}}}, {"name": "StatefulPartitionedCall/ssd_mobile_net_v2fpn_keras_feature_extractor/functional_1/block_8_project_BN/FusedBatchNormV3", "op": "_FusedConv2D", "input": ["StatefulPartitionedCall/ssd_mobile_net_v2fpn_keras_feature_extractor/functional_1/block_8_depthwise/depthwise", "StatefulPartitionedCall/ssd_mobile_net_v2fpn_keras_feature_extractor/functional_1/block_8_project/Conv2D_weights", "StatefulPartitionedCall/ssd_mobile_net_v2fpn_keras_feature_extractor/functional_1/block_8_project/Conv2D_bn_offset"], "device": "/device:CPU:0", "attr": {"epsilon": {"f": 0.0}, "use_cudnn_on_gpu": {"b": true}, "num_args": {"i": "1"}, "explicit_paddings": {"list": {}}, "fused_ops": {"list": {"s": ["Qmlhc0FkZA=="]}}, "data_format": {"s": "TkhXQw=="}, "dilations": {"list": {"i": ["1", "1", "1", "1"]}}, "strides": {"list": {"i": ["1", "1", "1", "1"]}}, "T": {"type": "DT_FLOAT"}, "padding": {"s": "U0FNRQ=="}}}, {"name": "StatefulPartitionedCall/ssd_mobile_net_v2fpn_keras_feature_extractor/functional_1/block_8_add/add", "op": "AddV2", "input": ["StatefulPartitionedCall/ssd_mobile_net_v2fpn_keras_feature_extractor/functional_1/block_7_add/add", "StatefulPartitionedCall/ssd_mobile_net_v2fpn_keras_feature_extractor/functional_1/block_8_project_BN/FusedBatchNormV3"], "attr": {"T": {"type": "DT_FLOAT"}}}, {"name": "StatefulPartitionedCall/ssd_mobile_net_v2fpn_keras_feature_extractor/functional_1/block_9_expand_relu/Relu6", "op": "_FusedConv2D", "input": ["StatefulPartitionedCall/ssd_mobile_net_v2fpn_keras_feature_extractor/functional_1/block_8_add/add", "StatefulPartitionedCall/ssd_mobile_net_v2fpn_keras_feature_extractor/functional_1/block_9_expand/Conv2D_weights", "StatefulPartitionedCall/ssd_mobile_net_v2fpn_keras_feature_extractor/functional_1/block_9_expand/Conv2D_bn_offset"], "device": "/device:CPU:0", "attr": {"strides": {"list": {"i": ["1", "1", "1", "1"]}}, "epsilon": {"f": 0.0}, "use_cudnn_on_gpu": {"b": true}, "T": {"type": "DT_FLOAT"}, "num_args": {"i": "1"}, "explicit_paddings": {"list": {}}, "fused_ops": {"list": {"s": ["Qmlhc0FkZA==", "UmVsdTY="]}}, "padding": {"s": "U0FNRQ=="}, "data_format": {"s": "TkhXQw=="}, "dilations": {"list": {"i": ["1", "1", "1", "1"]}}}}, {"name": "StatefulPartitionedCall/ssd_mobile_net_v2fpn_keras_feature_extractor/functional_1/block_9_depthwise/depthwise", "op": "FusedDepthwiseConv2dNative", "input": ["StatefulPartitionedCall/ssd_mobile_net_v2fpn_keras_feature_extractor/functional_1/block_9_expand_relu/Relu6", "StatefulPartitionedCall/ssd_mobile_net_v2fpn_keras_feature_extractor/functional_1/block_9_depthwise/depthwise_weights", "StatefulPartitionedCall/ssd_mobile_net_v2fpn_keras_feature_extractor/functional_1/block_9_depthwise/depthwise_bn_offset"], "attr": {"padding": {"s": "U0FNRQ=="}, "fused_ops": {"list": {"s": ["Qmlhc0FkZA==", "UmVsdTY="]}}, "data_format": {"s": "TkhXQw=="}, "dilations": {"list": {"i": ["1", "1", "1", "1"]}}, "strides": {"list": {"i": ["1", "1", "1", "1"]}}, "T": {"type": "DT_FLOAT"}, "num_args": {"i": "1"}, "explicit_paddings": {"list": {}}}}, {"name": "StatefulPartitionedCall/ssd_mobile_net_v2fpn_keras_feature_extractor/functional_1/block_9_project_BN/FusedBatchNormV3", "op": "_FusedConv2D", "input": ["StatefulPartitionedCall/ssd_mobile_net_v2fpn_keras_feature_extractor/functional_1/block_9_depthwise/depthwise", "StatefulPartitionedCall/ssd_mobile_net_v2fpn_keras_feature_extractor/functional_1/block_9_project/Conv2D_weights", "StatefulPartitionedCall/ssd_mobile_net_v2fpn_keras_feature_extractor/functional_1/block_9_project/Conv2D_bn_offset"], "device": "/device:CPU:0", "attr": {"strides": {"list": {"i": ["1", "1", "1", "1"]}}, "T": {"type": "DT_FLOAT"}, "num_args": {"i": "1"}, "epsilon": {"f": 0.0}, "use_cudnn_on_gpu": {"b": true}, "explicit_paddings": {"list": {}}, "fused_ops": {"list": {"s": ["Qmlhc0FkZA=="]}}, "data_format": {"s": "TkhXQw=="}, "padding": {"s": "U0FNRQ=="}, "dilations": {"list": {"i": ["1", "1", "1", "1"]}}}}, {"name": "StatefulPartitionedCall/ssd_mobile_net_v2fpn_keras_feature_extractor/functional_1/block_9_add/add", "op": "AddV2", "input": ["StatefulPartitionedCall/ssd_mobile_net_v2fpn_keras_feature_extractor/functional_1/block_8_add/add", "StatefulPartitionedCall/ssd_mobile_net_v2fpn_keras_feature_extractor/functional_1/block_9_project_BN/FusedBatchNormV3"], "attr": {"T": {"type": "DT_FLOAT"}}}, {"name": "StatefulPartitionedCall/ssd_mobile_net_v2fpn_keras_feature_extractor/functional_1/block_10_expand_relu/Relu6", "op": "_FusedConv2D", "input": ["StatefulPartitionedCall/ssd_mobile_net_v2fpn_keras_feature_extractor/functional_1/block_9_add/add", "StatefulPartitionedCall/ssd_mobile_net_v2fpn_keras_feature_extractor/functional_1/block_10_expand/Conv2D_weights", "StatefulPartitionedCall/ssd_mobile_net_v2fpn_keras_feature_extractor/functional_1/block_10_expand/Conv2D_bn_offset"], "device": "/device:CPU:0", "attr": {"T": {"type": "DT_FLOAT"}, "padding": {"s": "U0FNRQ=="}, "epsilon": {"f": 0.0}, "use_cudnn_on_gpu": {"b": true}, "num_args": {"i": "1"}, "explicit_paddings": {"list": {}}, "fused_ops": {"list": {"s": ["Qmlhc0FkZA==", "UmVsdTY="]}}, "data_format": {"s": "TkhXQw=="}, "dilations": {"list": {"i": ["1", "1", "1", "1"]}}, "strides": {"list": {"i": ["1", "1", "1", "1"]}}}}, {"name": "StatefulPartitionedCall/ssd_mobile_net_v2fpn_keras_feature_extractor/functional_1/block_10_depthwise/depthwise", "op": "FusedDepthwiseConv2dNative", "input": ["StatefulPartitionedCall/ssd_mobile_net_v2fpn_keras_feature_extractor/functional_1/block_10_expand_relu/Relu6", "StatefulPartitionedCall/ssd_mobile_net_v2fpn_keras_feature_extractor/functional_1/block_10_depthwise/depthwise_weights", "StatefulPartitionedCall/ssd_mobile_net_v2fpn_keras_feature_extractor/functional_1/block_10_depthwise/depthwise_bn_offset"], "attr": {"padding": {"s": "U0FNRQ=="}, "explicit_paddings": {"list": {}}, "num_args": {"i": "1"}, "data_format": {"s": "TkhXQw=="}, "dilations": {"list": {"i": ["1", "1", "1", "1"]}}, "strides": {"list": {"i": ["1", "1", "1", "1"]}}, "fused_ops": {"list": {"s": ["Qmlhc0FkZA==", "UmVsdTY="]}}, "T": {"type": "DT_FLOAT"}}}, {"name": "StatefulPartitionedCall/ssd_mobile_net_v2fpn_keras_feature_extractor/functional_1/block_10_project_BN/FusedBatchNormV3", "op": "_FusedConv2D", "input": ["StatefulPartitionedCall/ssd_mobile_net_v2fpn_keras_feature_extractor/functional_1/block_10_depthwise/depthwise", "StatefulPartitionedCall/ssd_mobile_net_v2fpn_keras_feature_extractor/functional_1/block_10_project/Conv2D_weights", "StatefulPartitionedCall/ssd_mobile_net_v2fpn_keras_feature_extractor/functional_1/block_10_project/Conv2D_bn_offset"], "device": "/device:CPU:0", "attr": {"padding": {"s": "U0FNRQ=="}, "num_args": {"i": "1"}, "explicit_paddings": {"list": {}}, "data_format": {"s": "TkhXQw=="}, "dilations": {"list": {"i": ["1", "1", "1", "1"]}}, "strides": {"list": {"i": ["1", "1", "1", "1"]}}, "fused_ops": {"list": {"s": ["Qmlhc0FkZA=="]}}, "epsilon": {"f": 0.0}, "T": {"type": "DT_FLOAT"}, "use_cudnn_on_gpu": {"b": true}}}, {"name": "StatefulPartitionedCall/ssd_mobile_net_v2fpn_keras_feature_extractor/functional_1/block_11_expand_relu/Relu6", "op": "_FusedConv2D", "input": ["StatefulPartitionedCall/ssd_mobile_net_v2fpn_keras_feature_extractor/functional_1/block_10_project_BN/FusedBatchNormV3", "StatefulPartitionedCall/ssd_mobile_net_v2fpn_keras_feature_extractor/functional_1/block_11_expand/Conv2D_weights", "StatefulPartitionedCall/ssd_mobile_net_v2fpn_keras_feature_extractor/functional_1/block_11_expand/Conv2D_bn_offset"], "device": "/device:CPU:0", "attr": {"num_args": {"i": "1"}, "use_cudnn_on_gpu": {"b": true}, "data_format": {"s": "TkhXQw=="}, "padding": {"s": "U0FNRQ=="}, "strides": {"list": {"i": ["1", "1", "1", "1"]}}, "explicit_paddings": {"list": {}}, "dilations": {"list": {"i": ["1", "1", "1", "1"]}}, "fused_ops": {"list": {"s": ["Qmlhc0FkZA==", "UmVsdTY="]}}, "T": {"type": "DT_FLOAT"}, "epsilon": {"f": 0.0}}}, {"name": "StatefulPartitionedCall/ssd_mobile_net_v2fpn_keras_feature_extractor/functional_1/block_11_depthwise/depthwise", "op": "FusedDepthwiseConv2dNative", "input": ["StatefulPartitionedCall/ssd_mobile_net_v2fpn_keras_feature_extractor/functional_1/block_11_expand_relu/Relu6", "StatefulPartitionedCall/ssd_mobile_net_v2fpn_keras_feature_extractor/functional_1/block_11_depthwise/depthwise_weights", "StatefulPartitionedCall/ssd_mobile_net_v2fpn_keras_feature_extractor/functional_1/block_11_depthwise/depthwise_bn_offset"], "attr": {"T": {"type": "DT_FLOAT"}, "fused_ops": {"list": {"s": ["Qmlhc0FkZA==", "UmVsdTY="]}}, "explicit_paddings": {"list": {}}, "data_format": {"s": "TkhXQw=="}, "num_args": {"i": "1"}, "padding": {"s": "U0FNRQ=="}, "strides": {"list": {"i": ["1", "1", "1", "1"]}}, "dilations": {"list": {"i": ["1", "1", "1", "1"]}}}}, {"name": "StatefulPartitionedCall/ssd_mobile_net_v2fpn_keras_feature_extractor/functional_1/block_11_project_BN/FusedBatchNormV3", "op": "_FusedConv2D", "input": ["StatefulPartitionedCall/ssd_mobile_net_v2fpn_keras_feature_extractor/functional_1/block_11_depthwise/depthwise", "StatefulPartitionedCall/ssd_mobile_net_v2fpn_keras_feature_extractor/functional_1/block_11_project/Conv2D_weights", "StatefulPartitionedCall/ssd_mobile_net_v2fpn_keras_feature_extractor/functional_1/block_11_project/Conv2D_bn_offset"], "device": "/device:CPU:0", "attr": {"epsilon": {"f": 0.0}, "padding": {"s": "U0FNRQ=="}, "num_args": {"i": "1"}, "dilations": {"list": {"i": ["1", "1", "1", "1"]}}, "strides": {"list": {"i": ["1", "1", "1", "1"]}}, "use_cudnn_on_gpu": {"b": true}, "fused_ops": {"list": {"s": ["Qmlhc0FkZA=="]}}, "T": {"type": "DT_FLOAT"}, "explicit_paddings": {"list": {}}, "data_format": {"s": "TkhXQw=="}}}, {"name": "StatefulPartitionedCall/ssd_mobile_net_v2fpn_keras_feature_extractor/functional_1/block_11_add/add", "op": "AddV2", "input": ["StatefulPartitionedCall/ssd_mobile_net_v2fpn_keras_feature_extractor/functional_1/block_10_project_BN/FusedBatchNormV3", "StatefulPartitionedCall/ssd_mobile_net_v2fpn_keras_feature_extractor/functional_1/block_11_project_BN/FusedBatchNormV3"], "attr": {"T": {"type": "DT_FLOAT"}}}, {"name": "StatefulPartitionedCall/ssd_mobile_net_v2fpn_keras_feature_extractor/functional_1/block_12_expand_relu/Relu6", "op": "_FusedConv2D", "input": ["StatefulPartitionedCall/ssd_mobile_net_v2fpn_keras_feature_extractor/functional_1/block_11_add/add", "StatefulPartitionedCall/ssd_mobile_net_v2fpn_keras_feature_extractor/functional_1/block_12_expand/Conv2D_weights", "StatefulPartitionedCall/ssd_mobile_net_v2fpn_keras_feature_extractor/functional_1/block_12_expand/Conv2D_bn_offset"], "device": "/device:CPU:0", "attr": {"epsilon": {"f": 0.0}, "padding": {"s": "U0FNRQ=="}, "num_args": {"i": "1"}, "dilations": {"list": {"i": ["1", "1", "1", "1"]}}, "strides": {"list": {"i": ["1", "1", "1", "1"]}}, "use_cudnn_on_gpu": {"b": true}, "fused_ops": {"list": {"s": ["Qmlhc0FkZA==", "UmVsdTY="]}}, "T": {"type": "DT_FLOAT"}, "explicit_paddings": {"list": {}}, "data_format": {"s": "TkhXQw=="}}}, {"name": "StatefulPartitionedCall/ssd_mobile_net_v2fpn_keras_feature_extractor/functional_1/block_12_depthwise/depthwise", "op": "FusedDepthwiseConv2dNative", "input": ["StatefulPartitionedCall/ssd_mobile_net_v2fpn_keras_feature_extractor/functional_1/block_12_expand_relu/Relu6", "StatefulPartitionedCall/ssd_mobile_net_v2fpn_keras_feature_extractor/functional_1/block_12_depthwise/depthwise_weights", "StatefulPartitionedCall/ssd_mobile_net_v2fpn_keras_feature_extractor/functional_1/block_12_depthwise/depthwise_bn_offset"], "attr": {"T": {"type": "DT_FLOAT"}, "fused_ops": {"list": {"s": ["Qmlhc0FkZA==", "UmVsdTY="]}}, "explicit_paddings": {"list": {}}, "data_format": {"s": "TkhXQw=="}, "num_args": {"i": "1"}, "padding": {"s": "U0FNRQ=="}, "strides": {"list": {"i": ["1", "1", "1", "1"]}}, "dilations": {"list": {"i": ["1", "1", "1", "1"]}}}}, {"name": "StatefulPartitionedCall/ssd_mobile_net_v2fpn_keras_feature_extractor/functional_1/block_12_project_BN/FusedBatchNormV3", "op": "_FusedConv2D", "input": ["StatefulPartitionedCall/ssd_mobile_net_v2fpn_keras_feature_extractor/functional_1/block_12_depthwise/depthwise", "StatefulPartitionedCall/ssd_mobile_net_v2fpn_keras_feature_extractor/functional_1/block_12_project/Conv2D_weights", "StatefulPartitionedCall/ssd_mobile_net_v2fpn_keras_feature_extractor/functional_1/block_12_project/Conv2D_bn_offset"], "device": "/device:CPU:0", "attr": {"T": {"type": "DT_FLOAT"}, "fused_ops": {"list": {"s": ["Qmlhc0FkZA=="]}}, "use_cudnn_on_gpu": {"b": true}, "explicit_paddings": {"list": {}}, "data_format": {"s": "TkhXQw=="}, "epsilon": {"f": 0.0}, "num_args": {"i": "1"}, "padding": {"s": "U0FNRQ=="}, "strides": {"list": {"i": ["1", "1", "1", "1"]}}, "dilations": {"list": {"i": ["1", "1", "1", "1"]}}}}, {"name": "StatefulPartitionedCall/ssd_mobile_net_v2fpn_keras_feature_extractor/functional_1/block_12_add/add", "op": "AddV2", "input": ["StatefulPartitionedCall/ssd_mobile_net_v2fpn_keras_feature_extractor/functional_1/block_11_add/add", "StatefulPartitionedCall/ssd_mobile_net_v2fpn_keras_feature_extractor/functional_1/block_12_project_BN/FusedBatchNormV3"], "attr": {"T": {"type": "DT_FLOAT"}}}, {"name": "StatefulPartitionedCall/ssd_mobile_net_v2fpn_keras_feature_extractor/FeatureMaps/top_down/projection_2/BiasAdd", "op": "_FusedConv2D", "input": ["StatefulPartitionedCall/ssd_mobile_net_v2fpn_keras_feature_extractor/functional_1/block_12_add/add", "unknown_261", "unknown_262"], "device": "/device:CPU:0", "attr": {"T": {"type": "DT_FLOAT"}, "fused_ops": {"list": {"s": ["Qmlhc0FkZA=="]}}, "use_cudnn_on_gpu": {"b": true}, "explicit_paddings": {"list": {}}, "data_format": {"s": "TkhXQw=="}, "epsilon": {"f": 0.0}, "num_args": {"i": "1"}, "padding": {"s": "U0FNRQ=="}, "strides": {"list": {"i": ["1", "1", "1", "1"]}}, "dilations": {"list": {"i": ["1", "1", "1", "1"]}}}}, {"name": "StatefulPartitionedCall/ssd_mobile_net_v2fpn_keras_feature_extractor/functional_1/block_13_expand_relu/Relu6", "op": "_FusedConv2D", "input": ["StatefulPartitionedCall/ssd_mobile_net_v2fpn_keras_feature_extractor/functional_1/block_12_add/add", "StatefulPartitionedCall/ssd_mobile_net_v2fpn_keras_feature_extractor/functional_1/block_13_expand/Conv2D_weights", "StatefulPartitionedCall/ssd_mobile_net_v2fpn_keras_feature_extractor/functional_1/block_13_expand/Conv2D_bn_offset"], "device": "/device:CPU:0", "attr": {"padding": {"s": "U0FNRQ=="}, "T": {"type": "DT_FLOAT"}, "data_format": {"s": "TkhXQw=="}, "num_args": {"i": "1"}, "fused_ops": {"list": {"s": ["Qmlhc0FkZA==", "UmVsdTY="]}}, "epsilon": {"f": 0.0}, "strides": {"list": {"i": ["1", "1", "1", "1"]}}, "use_cudnn_on_gpu": {"b": true}, "dilations": {"list": {"i": ["1", "1", "1", "1"]}}, "explicit_paddings": {"list": {}}}}, {"name": "StatefulPartitionedCall/ssd_mobile_net_v2fpn_keras_feature_extractor/functional_1/block_13_depthwise/depthwise", "op": "FusedDepthwiseConv2dNative", "input": ["StatefulPartitionedCall/ssd_mobile_net_v2fpn_keras_feature_extractor/functional_1/block_13_expand_relu/Relu6", "StatefulPartitionedCall/ssd_mobile_net_v2fpn_keras_feature_extractor/functional_1/block_13_depthwise/depthwise_weights", "StatefulPartitionedCall/ssd_mobile_net_v2fpn_keras_feature_extractor/functional_1/block_13_depthwise/depthwise_bn_offset"], "attr": {"padding": {"s": "U0FNRQ=="}, "T": {"type": "DT_FLOAT"}, "data_format": {"s": "TkhXQw=="}, "num_args": {"i": "1"}, "fused_ops": {"list": {"s": ["Qmlhc0FkZA==", "UmVsdTY="]}}, "strides": {"list": {"i": ["1", "2", "2", "1"]}}, "dilations": {"list": {"i": ["1", "1", "1", "1"]}}, "explicit_paddings": {"list": {}}}}, {"name": "StatefulPartitionedCall/ssd_mobile_net_v2fpn_keras_feature_extractor/functional_1/block_13_project_BN/FusedBatchNormV3", "op": "_FusedConv2D", "input": ["StatefulPartitionedCall/ssd_mobile_net_v2fpn_keras_feature_extractor/functional_1/block_13_depthwise/depthwise", "StatefulPartitionedCall/ssd_mobile_net_v2fpn_keras_feature_extractor/functional_1/block_13_project/Conv2D_weights", "StatefulPartitionedCall/ssd_mobile_net_v2fpn_keras_feature_extractor/functional_1/block_13_project/Conv2D_bn_offset"], "device": "/device:CPU:0", "attr": {"padding": {"s": "U0FNRQ=="}, "T": {"type": "DT_FLOAT"}, "data_format": {"s": "TkhXQw=="}, "num_args": {"i": "1"}, "fused_ops": {"list": {"s": ["Qmlhc0FkZA=="]}}, "epsilon": {"f": 0.0}, "strides": {"list": {"i": ["1", "1", "1", "1"]}}, "use_cudnn_on_gpu": {"b": true}, "dilations": {"list": {"i": ["1", "1", "1", "1"]}}, "explicit_paddings": {"list": {}}}}, {"name": "StatefulPartitionedCall/ssd_mobile_net_v2fpn_keras_feature_extractor/functional_1/block_14_expand_relu/Relu6", "op": "_FusedConv2D", "input": ["StatefulPartitionedCall/ssd_mobile_net_v2fpn_keras_feature_extractor/functional_1/block_13_project_BN/FusedBatchNormV3", "StatefulPartitionedCall/ssd_mobile_net_v2fpn_keras_feature_extractor/functional_1/block_14_expand/Conv2D_weights", "StatefulPartitionedCall/ssd_mobile_net_v2fpn_keras_feature_extractor/functional_1/block_14_expand/Conv2D_bn_offset"], "device": "/device:CPU:0", "attr": {"fused_ops": {"list": {"s": ["Qmlhc0FkZA==", "UmVsdTY="]}}, "strides": {"list": {"i": ["1", "1", "1", "1"]}}, "use_cudnn_on_gpu": {"b": true}, "dilations": {"list": {"i": ["1", "1", "1", "1"]}}, "explicit_paddings": {"list": {}}, "padding": {"s": "U0FNRQ=="}, "T": {"type": "DT_FLOAT"}, "data_format": {"s": "TkhXQw=="}, "num_args": {"i": "1"}, "epsilon": {"f": 0.0}}}, {"name": "StatefulPartitionedCall/ssd_mobile_net_v2fpn_keras_feature_extractor/functional_1/block_14_depthwise/depthwise", "op": "FusedDepthwiseConv2dNative", "input": ["StatefulPartitionedCall/ssd_mobile_net_v2fpn_keras_feature_extractor/functional_1/block_14_expand_relu/Relu6", "StatefulPartitionedCall/ssd_mobile_net_v2fpn_keras_feature_extractor/functional_1/block_14_depthwise/depthwise_weights", "StatefulPartitionedCall/ssd_mobile_net_v2fpn_keras_feature_extractor/functional_1/block_14_depthwise/depthwise_bn_offset"], "attr": {"fused_ops": {"list": {"s": ["Qmlhc0FkZA==", "UmVsdTY="]}}, "strides": {"list": {"i": ["1", "1", "1", "1"]}}, "dilations": {"list": {"i": ["1", "1", "1", "1"]}}, "explicit_paddings": {"list": {}}, "padding": {"s": "U0FNRQ=="}, "T": {"type": "DT_FLOAT"}, "data_format": {"s": "TkhXQw=="}, "num_args": {"i": "1"}}}, {"name": "StatefulPartitionedCall/ssd_mobile_net_v2fpn_keras_feature_extractor/functional_1/block_14_project_BN/FusedBatchNormV3", "op": "_FusedConv2D", "input": ["StatefulPartitionedCall/ssd_mobile_net_v2fpn_keras_feature_extractor/functional_1/block_14_depthwise/depthwise", "StatefulPartitionedCall/ssd_mobile_net_v2fpn_keras_feature_extractor/functional_1/block_14_project/Conv2D_weights", "StatefulPartitionedCall/ssd_mobile_net_v2fpn_keras_feature_extractor/functional_1/block_14_project/Conv2D_bn_offset"], "device": "/device:CPU:0", "attr": {"fused_ops": {"list": {"s": ["Qmlhc0FkZA=="]}}, "strides": {"list": {"i": ["1", "1", "1", "1"]}}, "use_cudnn_on_gpu": {"b": true}, "dilations": {"list": {"i": ["1", "1", "1", "1"]}}, "explicit_paddings": {"list": {}}, "padding": {"s": "U0FNRQ=="}, "T": {"type": "DT_FLOAT"}, "data_format": {"s": "TkhXQw=="}, "num_args": {"i": "1"}, "epsilon": {"f": 0.0}}}, {"name": "StatefulPartitionedCall/ssd_mobile_net_v2fpn_keras_feature_extractor/functional_1/block_14_add/add", "op": "AddV2", "input": ["StatefulPartitionedCall/ssd_mobile_net_v2fpn_keras_feature_extractor/functional_1/block_13_project_BN/FusedBatchNormV3", "StatefulPartitionedCall/ssd_mobile_net_v2fpn_keras_feature_extractor/functional_1/block_14_project_BN/FusedBatchNormV3"], "attr": {"T": {"type": "DT_FLOAT"}}}, {"name": "StatefulPartitionedCall/ssd_mobile_net_v2fpn_keras_feature_extractor/functional_1/block_15_expand_relu/Relu6", "op": "_FusedConv2D", "input": ["StatefulPartitionedCall/ssd_mobile_net_v2fpn_keras_feature_extractor/functional_1/block_14_add/add", "StatefulPartitionedCall/ssd_mobile_net_v2fpn_keras_feature_extractor/functional_1/block_15_expand/Conv2D_weights", "StatefulPartitionedCall/ssd_mobile_net_v2fpn_keras_feature_extractor/functional_1/block_15_expand/Conv2D_bn_offset"], "device": "/device:CPU:0", "attr": {"use_cudnn_on_gpu": {"b": true}, "dilations": {"list": {"i": ["1", "1", "1", "1"]}}, "T": {"type": "DT_FLOAT"}, "explicit_paddings": {"list": {}}, "fused_ops": {"list": {"s": ["Qmlhc0FkZA==", "UmVsdTY="]}}, "data_format": {"s": "TkhXQw=="}, "num_args": {"i": "1"}, "epsilon": {"f": 0.0}, "padding": {"s": "U0FNRQ=="}, "strides": {"list": {"i": ["1", "1", "1", "1"]}}}}, {"name": "StatefulPartitionedCall/ssd_mobile_net_v2fpn_keras_feature_extractor/functional_1/block_15_depthwise/depthwise", "op": "FusedDepthwiseConv2dNati…
t", "shape": [], "dtype": "int32"}, {"name": "StatefulPartitionedCall/Postprocessor/BatchMultiClassNonMaxSuppression/MultiClassNonMaxSuppression/concat/axis", "shape": [], "dtype": "int32"}, {"name": "StatefulPartitionedCall/Postprocessor/BatchMultiClassNonMaxSuppression/MultiClassNonMaxSuppression/Gather/GatherV2_5/axis", "shape": [], "dtype": "int32"}, {"name": "StatefulPartitionedCall/Postprocessor/BatchMultiClassNonMaxSuppression/MultiClassNonMaxSuppression/SortByField/strided_slice/stack", "shape": [1], "dtype": "int32"}, {"name": "StatefulPartitionedCall/Postprocessor/BatchMultiClassNonMaxSuppression/MultiClassNonMaxSuppression/SortByField/strided_slice/stack_1", "shape": [1], "dtype": "int32"}, {"name": "StatefulPartitionedCall/Postprocessor/BatchMultiClassNonMaxSuppression/MultiClassNonMaxSuppression/SortByField/strided_slice/stack_2", "shape": [1], "dtype": "int32"}, {"name": "StatefulPartitionedCall/Postprocessor/BatchMultiClassNonMaxSuppression/MultiClassNonMaxSuppression/SortByField/Gather/GatherV2_6/axis", "shape": [], "dtype": "int32"}, {"name": "StatefulPartitionedCall/Postprocessor/BatchMultiClassNonMaxSuppression/MultiClassNonMaxSuppression/ClipToWindow/strided_slice_3", "shape": [], "dtype": "float32", "quantization": {"dtype": "uint8", "min": 1.0, "scale": 1.0, "original_dtype": "float32"}}, {"name": "StatefulPartitionedCall/Postprocessor/BatchMultiClassNonMaxSuppression/MultiClassNonMaxSuppression/ClipToWindow/strided_slice_1", "shape": [], "dtype": "float32", "quantization": {"dtype": "uint8", "min": 0.0, "scale": 1.0, "original_dtype": "float32"}}, {"name": "StatefulPartitionedCall/Postprocessor/BatchMultiClassNonMaxSuppression/MultiClassNonMaxSuppression/ClipToWindow/concat/axis", "shape": [], "dtype": "int32"}, {"name": "StatefulPartitionedCall/Postprocessor/BatchMultiClassNonMaxSuppression/MultiClassNonMaxSuppression/ClipToWindow/Greater/y", "shape": [], "dtype": "float32", "quantization": {"dtype": "uint8", "min": 0.0, "scale": 1.0, "original_dtype": "float32"}}, {"name": "StatefulPartitionedCall/Postprocessor/BatchMultiClassNonMaxSuppression/MultiClassNonMaxSuppression/ClipToWindow/Reshape/shape", "shape": [1], "dtype": "int32"}, {"name": "StatefulPartitionedCall/Postprocessor/BatchMultiClassNonMaxSuppression/MultiClassNonMaxSuppression/ClipToWindow/Gather/GatherV2_6/axis", "shape": [], "dtype": "int32"}, {"name": "StatefulPartitionedCall/Postprocessor/BatchMultiClassNonMaxSuppression/MultiClassNonMaxSuppression/strided_slice_3/stack", "shape": [1], "dtype": "int32"}, {"name": "StatefulPartitionedCall/Postprocessor/BatchMultiClassNonMaxSuppression/MultiClassNonMaxSuppression/strided_slice_3/stack_1", "shape": [1], "dtype": "int32"}, {"name": "StatefulPartitionedCall/Postprocessor/BatchMultiClassNonMaxSuppression/MultiClassNonMaxSuppression/strided_slice_3/stack_2", "shape": [1], "dtype": "int32"}, {"name": "StatefulPartitionedCall/Postprocessor/BatchMultiClassNonMaxSuppression/MultiClassNonMaxSuppression/ones_1/Reshape/shape", "shape": [1], "dtype": "int32"}, {"name": "StatefulPartitionedCall/Postprocessor/BatchMultiClassNonMaxSuppression/MultiClassNonMaxSuppression/ones_1/Const", "shape": [], "dtype": "float32", "quantization": {"dtype": "uint8", "min": 1.0, "scale": 1.0, "original_dtype": "float32"}}, {"name": "StatefulPartitionedCall/ssd_mobile_net_v2fpn_keras_feature_extractor/functional_1/Conv1/Conv2D_weights", "shape": [3, 3, 3, 32], "dtype": "float32", "quantization": {"dtype": "uint8", "min": -1.3572238641626695, "scale": 0.013709331961239085, "original_dtype": "float32"}}, {"name": "StatefulPartitionedCall/ssd_mobile_net_v2fpn_keras_feature_extractor/functional_1/Conv1/Conv2D_bn_offset", "shape": [32], "dtype": "float32", "quantization": {"dtype": "uint8", "min": -4.387291672650505, "scale": 0.03848501467237286, "original_dtype": "float32"}}, {"name": "StatefulPartitionedCall/ssd_mobile_net_v2fpn_keras_feature_extractor/functional_1/expanded_conv_depthwise/depthwise_weights", "shape": [3, 3, 32, 1], "dtype": "float32", "quantization": {"dtype": "uint8", "min": -5.923216595369227, "scale": 0.06887461157406077, "original_dtype": "float32"}}, {"name": "StatefulPartitionedCall/ssd_mobile_net_v2fpn_keras_feature_extractor/functional_1/expanded_conv_depthwise/depthwise_bn_offset", "shape": [32], "dtype": "float32", "quantization": {"dtype": "uint8", "min": -2.4950175378836836, "scale": 0.12475087689418418, "original_dtype": "float32"}}, {"name": "StatefulPartitionedCall/ssd_mobile_net_v2fpn_keras_feature_extractor/functional_1/expanded_conv_project/Conv2D_weights", "shape": [1, 1, 32, 16], "dtype": "float32", "quantization": {"dtype": "uint8", "min": -2.524557192185346, "scale": 0.020524855221019073, "original_dtype": "float32"}}, {"name": "StatefulPartitionedCall/ssd_mobile_net_v2fpn_keras_feature_extractor/functional_1/expanded_conv_project/Conv2D_bn_offset", "shape": [16], "dtype": "float32", "quantization": {"dtype": "uint8", "min": -13.564159198835783, "scale": 0.11495050168504901, "original_dtype": "float32"}}, {"name": "StatefulPartitionedCall/ssd_mobile_net_v2fpn_keras_feature_extractor/functional_1/block_1_expand/Conv2D_weights", "shape": [1, 1, 16, 96], "dtype": "float32", "quantization": {"dtype": "uint8", "min": -0.6351522405942281, "scale": 0.007472379301108566, "original_dtype": "float32"}}, {"name": "StatefulPartitionedCall/ssd_mobile_net_v2fpn_keras_feature_extractor/functional_1/block_1_expand/Conv2D_bn_offset", "shape": [96], "dtype": "float32", "quantization": {"dtype": "uint8", "min": -1.7495984596364638, "scale": 0.020110327122258204, "original_dtype": "float32"}}, {"name": "StatefulPartitionedCall/ssd_mobile_net_v2fpn_keras_feature_extractor/functional_1/block_1_depthwise/depthwise_weights", "shape": [3, 3, 96, 1], "dtype": "float32", "quantization": {"dtype": "uint8", "min": -2.3521657625834145, "scale": 0.019766098845238778, "original_dtype": "float32"}}, {"name": "StatefulPartitionedCall/ssd_mobile_net_v2fpn_keras_feature_extractor/functional_1/block_1_depthwise/depthwise_bn_offset", "shape": [96], "dtype": "float32", "quantization": {"dtype": "uint8", "min": -9.530486667857451, "scale": 0.06031953587251551, "original_dtype": "float32"}}, {"name": "StatefulPartitionedCall/ssd_mobile_net_v2fpn_keras_feature_extractor/functional_1/block_1_project/Conv2D_weights", "shape": [1, 1, 96, 24], "dtype": "float32", "quantization": {"dtype": "uint8", "min": -2.0148950520683737, "scale": 0.01599123057197122, "original_dtype": "float32"}}, {"name": "StatefulPartitionedCall/ssd_mobile_net_v2fpn_keras_feature_extractor/functional_1/block_1_project/Conv2D_bn_offset", "shape": [24], "dtype": "float32", "quantization": {"dtype": "uint8", "min": -8.056350169462316, "scale": 0.08756902358111213, "original_dtype": "float32"}}, {"name": "StatefulPartitionedCall/ssd_mobile_net_v2fpn_keras_feature_extractor/functional_1/block_2_expand/Conv2D_weights", "shape": [1, 1, 24, 144], "dtype": "float32", "quantization": {"dtype": "uint8", "min": -0.3137225267933864, "scale": 0.002704504541322297, "original_dtype": "float32"}}, {"name": "StatefulPartitionedCall/ssd_mobile_net_v2fpn_keras_feature_extractor/functional_1/block_2_expand/Conv2D_bn_offset", "shape": [144], "dtype": "float32", "quantization": {"dtype": "uint8", "min": -2.519931724959729, "scale": 0.023550763784670362, "original_dtype": "float32"}}, {"name": "StatefulPartitionedCall/ssd_mobile_net_v2fpn_keras_feature_extractor/functional_1/block_2_depthwise/depthwise_weights", "shape": [3, 3, 144, 1], "dtype": "float32", "quantization": {"dtype": "uint8", "min": -6.1513467826095285, "scale": 0.06341594621246936, "original_dtype": "float32"}}, {"name": "StatefulPartitionedCall/ssd_mobile_net_v2fpn_keras_feature_extractor/functional_1/block_2_depthwise/depthwise_bn_offset", "shape": [144], "dtype": "float32", "quantization": {"dtype": "uint8", "min": -3.070059533212699, "scale": 0.03837574416515874, "original_dtype": "float32"}}, {"name": "StatefulPartitionedCall/ssd_mobile_net_v2fpn_keras_feature_extractor/functional_1/block_2_project/Conv2D_weights", "shape": [1, 1, 144, 24], "dtype": "float32", "quantization": {"dtype": "uint8", "min": -1.61525658158695, "scale": 0.01252136884951124, "original_dtype": "float32"}}, {"name": "StatefulPartitionedCall/ssd_mobile_net_v2fpn_keras_feature_extractor/functional_1/block_2_project/Conv2D_bn_offset", "shape": [24], "dtype": "float32", "quantization": {"dtype": "uint8", "min": -10.78077283373066, "scale": 0.0709261370640175, "original_dtype": "float32"}}, {"name": "StatefulPartitionedCall/ssd_mobile_net_v2fpn_keras_feature_extractor/functional_1/block_3_expand/Conv2D_weights", "shape": [1, 1, 24, 144], "dtype": "float32", "quantization": {"dtype": "uint8", "min": -0.19586004755076242, "scale": 0.0017645049328897514, "original_dtype": "float32"}}, {"name": "StatefulPartitionedCall/ssd_mobile_net_v2fpn_keras_feature_extractor/functional_1/block_3_expand/Conv2D_bn_offset", "shape": [144], "dtype": "float32", "quantization": {"dtype": "uint8", "min": -2.1675064086914064, "scale": 0.021250062830307906, "original_dtype": "float32"}}, {"name": "StatefulPartitionedCall/ssd_mobile_net_v2fpn_keras_feature_extractor/functional_1/block_3_depthwise/depthwise_weights", "shape": [3, 3, 144, 1], "dtype": "float32", "quantization": {"dtype": "uint8", "min": -3.293213507708381, "scale": 0.025332411597756777, "original_dtype": "float32"}}, {"name": "StatefulPartitionedCall/ssd_mobile_net_v2fpn_keras_feature_extractor/functional_1/block_3_depthwise/depthwise_bn_offset", "shape": [144], "dtype": "float32", "quantization": {"dtype": "uint8", "min": -5.816672411151961, "scale": 0.045442753212124695, "original_dtype": "float32"}}, {"name": "StatefulPartitionedCall/ssd_mobile_net_v2fpn_keras_feature_extractor/functional_1/block_3_project/Conv2D_weights", "shape": [1, 1, 144, 32], "dtype": "float32", "quantization": {"dtype": "uint8", "min": -1.0529459364273968, "scale": 0.0075210424030528345, "original_dtype": "float32"}}, {"name": "StatefulPartitionedCall/ssd_mobile_net_v2fpn_keras_feature_extractor/functional_1/block_3_project/Conv2D_bn_offset", "shape": [32], "dtype": "float32", "quantization": {"dtype": "uint8", "min": -11.077103805541993, "scale": 0.07239937127805224, "original_dtype": "float32"}}, {"name": "StatefulPartitionedCall/ssd_mobile_net_v2fpn_keras_feature_extractor/functional_1/block_4_expand/Conv2D_weights", "shape": [1, 1, 32, 192], "dtype": "float32", "quantization": {"dtype": "uint8", "min": -0.1360645659413992, "scale": 0.0011831701386208627, "original_dtype": "float32"}}, {"name": "StatefulPartitionedCall/ssd_mobile_net_v2fpn_keras_feature_extractor/functional_1/block_4_expand/Conv2D_bn_offset", "shape": [192], "dtype": "float32", "quantization": {"dtype": "uint8", "min": -1.710190852950601, "scale": 0.0172746550803091, "original_dtype": "float32"}}, {"name": "StatefulPartitionedCall/ssd_mobile_net_v2fpn_keras_feature_extractor/functional_1/block_4_depthwise/depthwise_weights", "shape": [3, 3, 192, 1], "dtype": "float32", "quantization": {"dtype": "uint8", "min": -6.866800033344942, "scale": 0.061863063363467946, "original_dtype": "float32"}}, {"name": "StatefulPartitionedCall/ssd_mobile_net_v2fpn_keras_feature_extractor/functional_1/block_4_depthwise/depthwise_bn_offset", "shape": [192], "dtype": "float32", "quantization": {"dtype": "uint8", "min": -3.581996193119124, "scale": 0.06071179988337498, "original_dtype": "float32"}}, {"name": "StatefulPartitionedCall/ssd_mobile_net_v2fpn_keras_feature_extractor/functional_1/block_4_project/Conv2D_weights", "shape": [1, 1, 192, 32], "dtype": "float32", "quantization": {"dtype": "uint8", "min": -1.080553150177002, "scale": 0.007830095291137696, "original_dtype": "float32"}}, {"name": "StatefulPartitionedCall/ssd_mobile_net_v2fpn_keras_feature_extractor/functional_1/block_4_project/Conv2D_bn_offset", "shape": [32], "dtype": "float32", "quantization": {"dtype": "uint8", "min": -5.326188040714638, "scale": 0.036480740004894784, "original_dtype": "float32"}}, {"name": "StatefulPartitionedCall/ssd_mobile_net_v2fpn_keras_feature_extractor/functional_1/block_5_expand/Conv2D_weights", "shape": [1, 1, 32, 192], "dtype": "float32", "quantization": {"dtype": "uint8", "min": -0.1632061882346284, "scale": 0.0010808356836730358, "original_dtype": "float32"}}, {"name": "StatefulPartitionedCall/ssd_mobile_net_v2fpn_keras_feature_extractor/functional_1/block_5_expand/Conv2D_bn_offset", "shape": [192], "dtype": "float32", "quantization": {"dtype": "uint8", "min": -1.480544604507147, "scale": 0.013459496404610428, "original_dtype": "float32"}}, {"name": "StatefulPartitionedCall/ssd_mobile_net_v2fpn_keras_feature_extractor/functional_1/block_5_depthwise/depthwise_weights", "shape": [3, 3, 192, 1], "dtype": "float32", "quantization": {"dtype": "uint8", "min": -6.56512851341098, "scale": 0.05708807402966069, "original_dtype": "float32"}}, {"name": "StatefulPartitionedCall/ssd_mobile_net_v2fpn_keras_feature_extractor/functional_1/block_5_depthwise/depthwise_bn_offset", "shape": [192], "dtype": "float32", "quantization": {"dtype": "uint8", "min": -8.15921318951775, "scale": 0.05745924781350528, "original_dtype": "float32"}}, {"name": "StatefulPartitionedCall/ssd_mobile_net_v2fpn_keras_feature_extractor/functional_1/block_5_project/Conv2D_weights", "shape": [1, 1, 192, 32], "dtype": "float32", "quantization": {"dtype": "uint8", "min": -1.2400310240539851, "scale": 0.010248190281437893, "original_dtype": "float32"}}, {"name": "StatefulPartitionedCall/ssd_mobile_net_v2fpn_keras_feature_extractor/functional_1/block_5_project/Conv2D_bn_offset", "shape": [32], "dtype": "float32", "quantization": {"dtype": "uint8", "min": -5.441942850748697, "scale": 0.06402285706763174, "original_dtype": "float32"}}, {"name": "StatefulPartitionedCall/ssd_mobile_net_v2fpn_keras_feature_extractor/functional_1/block_6_expand/Conv2D_weights", "shape": [1, 1, 32, 192], "dtype": "float32", "quantization": {"dtype": "uint8", "min": -0.14451671727732116, "scale": 0.0012566671067593144, "original_dtype": "float32"}}, {"name": "StatefulPartitionedCall/ssd_mobile_net_v2fpn_keras_feature_extractor/functional_1/block_6_expand/Conv2D_bn_offset", "shape": [192], "dtype": "float32", "quantization": {"dtype": "uint8", "min": -1.6875374345218435, "scale": 0.01454773650449865, "original_dtype": "float32"}}, {"name": "StatefulPartitionedCall/ssd_mobile_net_v2fpn_keras_feature_extractor/functional_1/block_6_depthwise/depthwise_weights", "shape": [3, 3, 192, 1], "dtype": "float32", "quantization": {"dtype": "uint8", "min": -2.179841869952632, "scale": 0.01664001427444757, "original_dtype": "float32"}}, {"name": "StatefulPartitionedCall/ssd_mobile_net_v2fpn_keras_feature_extractor/functional_1/block_6_depthwise/depthwise_bn_offset", "shape": [192], "dtype": "float32", "quantization": {"dtype": "uint8", "min": -3.1370610096875358, "scale": 0.03605817252514409, "original_dtype": "float32"}}, {"name": "StatefulPartitionedCall/ssd_mobile_net_v2fpn_keras_feature_extractor/functional_1/block_6_project/Conv2D_weights", "shape": [1, 1, 192, 64], "dtype": "float32", "quantization": {"dtype": "uint8", "min": -0.9081467834173464, "scale": 0.0064867627386953315, "original_dtype": "float32"}}, {"name": "StatefulPartitionedCall/ssd_mobile_net_v2fpn_keras_feature_extractor/functional_1/block_6_project/Conv2D_bn_offset", "shape": [64], "dtype": "float32", "quantization": {"dtype": "uint8", "min": -9.018647025613223, "scale": 0.06937420788933249, "original_dtype": "float32"}}, {"name": "StatefulPartitionedCall/ssd_mobile_net_v2fpn_keras_feature_extractor/functional_1/block_7_expand/Conv2D_weights", "shape": [1, 1, 64, 384], "dtype": "float32", "quantization": {"dtype": "uint8", "min": -0.09550503141739788, "scale": 0.0008843058464573878, "original_dtype": "float32"}}, {"name": "StatefulPartitionedCall/ssd_mobile_net_v2fpn_keras_feature_extractor/functional_1/block_7_expand/Conv2D_bn_offset", "shape": [384], "dtype": "float32", "quantization": {"dtype": "uint8", "min": -1.4899612464156806, "scale": 0.016373200510062424, "original_dtype": "float32"}}, {"name": "StatefulPartitionedCall/ssd_mobile_net_v2fpn_keras_feature_extractor/functional_1/block_7_depthwise/depthwise_weights", "shape": [3, 3, 384, 1], "dtype": "float32", "quantization": {"dtype": "uint8", "min": -3.5583924667507993, "scale": 0.03785523900798723, "original_dtype": "float32"}}, {"name": "StatefulPartitionedCall/ssd_mobile_net_v2fpn_keras_feature_extractor/functional_1/block_7_depthwise/depthwise_bn_offset", "shape": [384], "dtype": "float32", "quantization": {"dtype": "uint8", "min": -2.7669852032380944, "scale": 0.026103633992812212, "original_dtype": "float32"}}, {"name": "StatefulPartitionedCall/ssd_mobile_net_v2fpn_keras_feature_extractor/functional_1/block_7_project/Conv2D_weights", "shape": [1, 1, 384, 64], "dtype": "float32", "quantization": {"dtype": "uint8", "min": -1.0477874026579015, "scale": 0.00793778335346895, "original_dtype": "float32"}}, {"name": "StatefulPartitionedCall/ssd_mobile_net_v2fpn_keras_feature_extractor/functional_1/block_7_project/Conv2D_bn_offset", "shape": [64], "dtype": "float32", "quantization": {"dtype": "uint8", "min": -6.279802742191389, "scale": 0.03760360923467898, "original_dtype": "float32"}}, {"name": "StatefulPartitionedCall/ssd_mobile_net_v2fpn_keras_feature_extractor/functional_1/block_8_expand/Conv2D_weights", "shape": [1, 1, 64, 384], "dtype": "float32", "quantization": {"dtype": "uint8", "min": -0.12291874850497526, "scale": 0.0008305320844930761, "original_dtype": "float32"}}, {"name": "StatefulPartitionedCall/ssd_mobile_net_v2fpn_keras_feature_extractor/functional_1/block_8_expand/Conv2D_bn_offset", "shape": [384], "dtype": "float32", "quantization": {"dtype": "uint8", "min": -1.0887635595658247, "scale": 0.009467509213615867, "original_dtype": "float32"}}, {"name": "StatefulPartitionedCall/ssd_mobile_net_v2fpn_keras_feature_extractor/functional_1/block_8_depthwise/depthwise_weights", "shape": [3, 3, 384, 1], "dtype": "float32", "quantization": {"dtype": "uint8", "min": -2.7497390522676355, "scale": 0.03273498871747185, "original_dtype": "float32"}}, {"name": "StatefulPartitionedCall/ssd_mobile_net_v2fpn_keras_feature_extractor/functional_1/block_8_depthwise/depthwise_bn_offset", "shape": [384], "dtype": "float32", "quantization": {"dtype": "uint8", "min": -8.940618311190137, "scale": 0.05022819275949515, "original_dtype": "float32"}}, {"name": "StatefulPartitionedCall/ssd_mobile_net_v2fpn_keras_feature_extractor/functional_1/block_8_project/Conv2D_weights", "shape": [1, 1, 384, 64], "dtype": "float32", "quantization": {"dtype": "uint8", "min": -0.8545023188871496, "scale": 0.006237243203555836, "original_dtype": "float32"}}, {"name": "StatefulPartitionedCall/ssd_mobile_net_v2fpn_keras_feature_extractor/functional_1/block_8_project/Conv2D_bn_offset", "shape": [64], "dtype": "float32", "quantization": {"dtype": "uint8", "min": -3.7021072976729448, "scale": 0.03335231799705356, "original_dtype": "float32"}}, {"name": "StatefulPartitionedCall/ssd_mobile_net_v2fpn_keras_feature_extractor/functional_1/block_9_expand/Conv2D_weights", "shape": [1, 1, 64, 384], "dtype": "float32", "quantization": {"dtype": "uint8", "min": -0.1282072958992977, "scale": 0.0009223546467575373, "original_dtype": "float32"}}, {"name": "StatefulPartitionedCall/ssd_mobile_net_v2fpn_keras_feature_extractor/functional_1/block_9_expand/Conv2D_bn_offset", "shape": [384], "dtype": "float32", "quantization": {"dtype": "uint8", "min": -1.1174780074287862, "scale": 0.010443719695596133, "original_dtype": "float32"}}, {"name": "StatefulPartitionedCall/ssd_mobile_net_v2fpn_keras_feature_extractor/functional_1/block_9_depthwise/depthwise_weights", "shape": [3, 3, 384, 1], "dtype": "float32", "quantization": {"dtype": "uint8", "min": -4.092212041219075, "scale": 0.029230086008707683, "original_dtype": "float32"}}, {"name": "StatefulPartitionedCall/ssd_mobile_net_v2fpn_keras_feature_extractor/functional_1/block_9_depthwise/depthwise_bn_offset", "shape": [384], "dtype": "float32", "quantization": {"dtype": "uint8", "min": -6.569539636724135, "scale": 0.04131785935046626, "original_dtype": "float32"}}, {"name": "StatefulPartitionedCall/ssd_mobile_net_v2fpn_keras_feature_extractor/functional_1/block_9_project/Conv2D_weights", "shape": [1, 1, 384, 64], "dtype": "float32", "quantization": {"dtype": "uint8", "min": -0.9715307347914752, "scale": 0.007416265151079964, "original_dtype": "float32"}}, {"name": "StatefulPartitionedCall/ssd_mobile_net_v2fpn_keras_feature_extractor/functional_1/block_9_project/Conv2D_bn_offset", "shape": [64], "dtype": "float32", "quantization": {"dtype": "uint8", "min": -3.6661183076746324, "scale": 0.02545915491440717, "original_dtype": "float32"}}, {"name": "StatefulPartitionedCall/ssd_mobile_net_v2fpn_keras_feature_extractor/functional_1/block_10_expand/Conv2D_weights", "shape": [1, 1, 64, 384], "dtype": "float32", "quantization": {"dtype": "uint8", "min": -0.20409632722536725, "scale": 0.0012005666307374544, "original_dtype": "float32"}}, {"name": "StatefulPartitionedCall/ssd_mobile_net_v2fpn_keras_feature_extractor/functional_1/block_10_expand/Conv2D_bn_offset", "shape": [384], "dtype": "float32", "quantization": {"dtype": "uint8", "min": -1.282721028140947, "scale": 0.01914508997225294, "original_dtype": "float32"}}, {"name": "StatefulPartitionedCall/ssd_mobile_net_v2fpn_keras_feature_extractor/functional_1/block_10_depthwise/depthwise_weights", "shape": [3, 3, 384, 1], "dtype": "float32", "quantization": {"dtype": "uint8", "min": -4.243586733761956, "scale": 0.03009635981391458, "original_dtype": "float32"}}, {"name": "StatefulPartitionedCall/ssd_mobile_net_v2fpn_keras_feature_extractor/functional_1/block_10_depthwise/depthwise_bn_offset", "shape": [384], "dtype": "float32", "quantization": {"dtype": "uint8", "min": -3.543006298588771, "scale": 0.06326796961765663, "original_dtype": "float32"}}, {"name": "StatefulPartitionedCall/ssd_mobile_net_v2fpn_keras_feature_extractor/functional_1/block_10_project/Conv2D_weights", "shape": [1, 1, 384, 96], "dtype": "float32", "quantization": {"dtype": "uint8", "min": -0.4925725221633911, "scale": 0.004139264892129337, "original_dtype": "float32"}}, {"name": "StatefulPartitionedCall/ssd_mobile_net_v2fpn_keras_feature_extractor/functional_1/block_10_project/Conv2D_bn_offset", "shape": [96], "dtype": "float32", "quantization": {"dtype": "uint8", "min": -6.8834864616394045, "scale": 0.05024442672729492, "original_dtype": "float32"}}, {"name": "StatefulPartitionedCall/ssd_mobile_net_v2fpn_keras_feature_extractor/functional_1/block_11_expand/Conv2D_weights", "shape": [1, 1, 96, 576], "dtype": "float32", "quantization": {"dtype": "uint8", "min": -0.20319404426743004, "scale": 0.001472420610633551, "original_dtype": "float32"}}, {"name": "StatefulPartitionedCall/ssd_mobile_net_v2fpn_keras_feature_extractor/functional_1/block_11_expand/Conv2D_bn_offset", "shape": [576], "dtype": "float32", "quantization": {"dtype": "uint8", "min": -1.169565280278524, "scale": 0.011355002721150717, "original_dtype": "float32"}}, {"name": "StatefulPartitionedCall/ssd_mobile_net_v2fpn_keras_feature_extractor/functional_1/block_11_depthwise/depthwise_weights", "shape": [3, 3, 576, 1], "dtype": "float32", "quantization": {"dtype": "uint8", "min": -4.023574888939951, "scale": 0.03143417881984337, "original_dtype": "float32"}}, {"name": "StatefulPartitionedCall/ssd_mobile_net_v2fpn_keras_feature_extractor/functional_1/block_11_depthwise/depthwise_bn_offset", "shape": [576], "dtype": "float32", "quantization": {"dtype": "uint8", "min": -4.809187290715236, "scale": 0.03974534951004328, "original_dtype": "float32"}}, {"name": "StatefulPartitionedCall/ssd_mobile_net_v2fpn_keras_feature_extractor/functional_1/block_11_project/Conv2D_weights", "shape": [1, 1, 576, 96], "dtype": "float32", "quantization": {"dtype": "uint8", "min": -0.646325049680822, "scale": 0.004896401891521379, "original_dtype": "float32"}}, {"name": "StatefulPartitionedCall/ssd_mobile_net_v2fpn_keras_feature_extractor/functional_1/block_11_project/Conv2D_bn_offset", "shape": [96], "dtype": "float32", "quantization": {"dtype": "uint8", "min": -4.384097290039063, "scale": 0.03223600948558134, "original_dtype": "float32"}}, {"name": "StatefulPartitionedCall/ssd_mobile_net_v2fpn_keras_feature_extractor/functional_1/block_12_expand/Conv2D_weights", "shape": [1, 1, 96, 576], "dtype": "float32", "quantization": {"dtype": "uint8", "min": -0.11013134227079503, "scale": 0.0008604011114905862, "original_dtype": "float32"}}, {"name": "StatefulPartitionedCall/ssd_mobile_net_v2fpn_keras_feature_extractor/functional_1/block_12_expand/Conv2D_bn_offset", "shape": [576], "dtype": "float32", "quantization": {"dtype": "uint8", "min": -1.5404112568088606, "scale": 0.014396366886064119, "original_dtype": "float32"}}, {"name": "StatefulPartitionedCall/ssd_mobile_net_v2fpn_keras_feature_extractor/functional_1/block_12_depthwise/depthwise_weights", "shape": [3, 3, 576, 1], "dtype": "float32", "quantization": {"dtype": "uint8", "min": -3.5241979627048265, "scale": 0.03559795921924067, "original_dtype": "float32"}}, {"name": "StatefulPartitionedCall/ssd_mobile_net_v2fpn_keras_feature_extractor/functional_1/block_12_depthwise/depthwise_bn_offset", "shape": [576], "dtype": "float32", "quantization": {"dtype": "uint8", "min": -6.715456197776047, "scale": 0.0444732198528215, "original_dtype": "float32"}}, {"name": "StatefulPartitionedCall/ssd_mobile_net_v2fpn_keras_feature_extractor/functional_1/block_12_project/Conv2D_weights", "shape": [1, 1, 576, 96], "dtype": "float32", "quantization": {"dtype": "uint8", "min": -0.9288640059676826, "scale": 0.008007448327307608, "original_dtype": "float32"}}, {"name": "StatefulPartitionedCall/ssd_mobile_net_v2fpn_keras_feature_extractor/functional_1/block_12_project/Conv2D_bn_offset", "shape": [96], "dtype": "float32", "quantization": {"dtype": "uint8", "min": -8.302532420438878, "scale": 0.06918777017032399, "original_dtype": "float32"}}, {"name": "StatefulPartitionedCall/ssd_mobile_net_v2fpn_keras_feature_extractor/functional_1/block_13_expand/Conv2D_weights", "shape": [1, 1, 96, 576], "dtype": "float32", "quantization": {"dtype": "uint8", "min": -0.13914731530582203, "scale": 0.0009663008007348752, "original_dtype": "float32"}}, {"name": "StatefulPartitionedCall/ssd_mobile_net_v2fpn_keras_feature_extractor/functional_1/block_13_expand/Conv2D_bn_offset", "shape": [576], "dtype": "float32", "quantization": {"dtype": "uint8", "min": -1.8879154317519242, "scale": 0.014983455807554955, "original_dtype": "float32"}}, {"name": "StatefulPartitionedCall/ssd_mobile_net_v2fpn_keras_feature_extractor/functional_1/block_13_depthwise/depthwise_weights", "shape": [3, 3, 576, 1], "dtype": "float32", "quantization": {"dtype": "uint8", "min": -4.03502701030058, "scale": 0.033073991887709674, "original_dtype": "float32"}}, {"name": "StatefulPartitionedCall/ssd_mobile_net_v2fpn_keras_feature_extractor/functional_1/block_13_depthwise/depthwise_bn_offset", "shape": [576], "dtype": "float32", "quantization": {"dtype": "uint8", "min": -3.0578176386216107, "scale": 0.04246968942530015, "original_dtype": "float32"}}, {"name": "StatefulPartitionedCall/ssd_mobile_net_v2fpn_keras_feature_extractor/functional_1/block_13_project/Conv2D_weights", "shape": [1, 1, 576, 160], "dtype": "float32", "quantization": {"dtype": "uint8", "min": -0.41126039448906393, "scale": 0.0032639713848338406, "original_dtype": "float32"}}, {"name": "StatefulPartitionedCall/ssd_mobile_net_v2fpn_keras_feature_extractor/functional_1/block_13_project/Conv2D_bn_offset", "shape": [160], "dtype": "float32", "quantization": {"dtype": "uint8", "min": -10.190773487091064, "scale": 0.0666063626607259, "original_dtype": "float32"}}, {"name": "StatefulPartitionedCall/ssd_mobile_net_v2fpn_keras_feature_extractor/functional_1/block_14_expand/Conv2D_weights", "shape": [1, 1, 160, 960], "dtype": "float32", "quantization": {"dtype": "uint8", "min": -0.16750051461014093, "scale": 0.001308597770391726, "original_dtype": "float32"}}, {"name": "StatefulPartitionedCall/ssd_mobile_net_v2fpn_keras_feature_extractor/functional_1/block_14_expand/Conv2D_bn_offset", "shape": [960], "dtype": "float32", "quantization": {"dtype": "uint8", "min": -1.566622649454603, "scale": 0.016150748963449514, "original_dtype": "float32"}}, {"name": "StatefulPartitionedCall/ssd_mobile_net_v2fpn_keras_feature_extractor/functional_1/block_14_depthwise/depthwise_weights", "shape": [3, 3, 960, 1], "dtype": "float32", "quantization": {"dtype": "uint8", "min": -4.125238396139705, "scale": 0.03222842496984145, "original_dtype": "float32"}}, {"name": "StatefulPartitionedCall/ssd_mobile_net_v2fpn_keras_feature_extractor/functional_1/block_14_depthwise/depthwise_bn_offset", "shape": [960], "dtype": "float32", "quantization": {"dtype": "uint8", "min": -6.723061064177869, "scale": 0.04452358320647595, "original_dtype": "float32"}}, {"name": "StatefulPartitionedCall/ssd_mobile_net_v2fpn_keras_feature_extractor/functional_1/block_14_project/Conv2D_weights", "shape": [1, 1, 960, 160], "dtype": "float32", "quantization": {"dtype": "uint8", "min": -0.47787033319473265, "scale": 0.0037926216920216877, "original_dtype": "float32"}}, {"name": "StatefulPartitionedCall/ssd_mobile_net_v2fpn_keras_feature_extractor/functional_1/block_14_project/Conv2D_bn_offset", "shape": [160], "dtype": "float32", "quantization": {"dtype": "uint8", "min": -3.4635517961838667, "scale": 0.03177570455214557, "original_dtype": "float32"}}, {"name": "StatefulPartitionedCall/ssd_mobile_net_v2fpn_keras_feature_extractor/functional_1/block_15_expand/Conv2D_weights", "shape": [1, 1, 160, 960], "dtype": "float32", "quantization": {"dtype": "uint8", "min": -0.11811727221105613, "scale": 0.000930057261504379, "original_dtype": "float32"}}, {"name": "StatefulPartitionedCall/ssd_mobile_net_v2fpn_keras_feature_extractor/functional_1/block_15_expand/Conv2D_bn_offset", "shape": [960], "dtype": "float32", "quantization": {"dtype": "uint8", "min": -1.9320454611497768, "scale": 0.01370245007907643, "original_dtype": "float32"}}, {"name": "StatefulPartitionedCall/ssd_mobile_net_v2fpn_keras_feature_extractor/functional_1/block_15_depthwise/depthwise_weights", "shape": [3, 3, 960, 1], "dtype": "float32", "quantization": {"dtype": "uint8", "min": -6.64767656139299, "scale": 0.0431667309181363, "original_dtype": "float32"}}, {"name": "StatefulPartitionedCall/ssd_mobile_net_v2fpn_keras_feature_extractor/functional_1/block_15_depthwise/depthwise_bn_offset", "shape": [960], "dtype": "float32", "quantization": {"dtype": "uint8", "min": -8.376550472483915, "scale": 0.04759403677547679, "original_dtype": "float32"}}, {"name": "StatefulPartitionedCall/ssd_mobile_net_v2fpn_keras_feature_extractor/functional_1/block_15_project/Conv2D_weights", "shape": [1, 1, 960, 160], "dtype": "float32", "quantization": {"dtype": "uint8", "min": -1.10394446849823, "scale": 0.008557709058125813, "original_dtype": "float32"}}, {"name": "StatefulPartitionedCall/ssd_mobile_net_v2fpn_keras_feature_extractor/functional_1/block_15_project/Conv2D_bn_offset", "shape": [160], "dtype": "float32", "quantization": {"dtype": "uint8", "min": -8.350685583376418, "scale": 0.06844824248669194, "original_dtype": "float32"}}, {"name": "StatefulPartitionedCall/ssd_mobile_net_v2fpn_keras_feature_extractor/functional_1/block_16_expand/Conv2D_weights", "shape": [1, 1, 160, 960], "dtype": "float32", "quantization": {"dtype": "uint8", "min": -0.11786996441728928, "scale": 0.0009354759080737245, "original_dtype": "float32"}}, {"name": "StatefulPartitionedCall/ssd_mobile_net_v2fpn_keras_feature_extractor/functional_1/block_16_expand/Conv2D_bn_offset", "shape": [960], "dtype": "float32", "quantization": {"dtype": "uint8", "min": -1.614474790236529, "scale": 0.01481169532327091, "original_dtype": "float32"}}, {"name": "StatefulPartitionedCall/ssd_mobile_net_v2fpn_keras_feature_extractor/functional_1/block_16_depthwise/depthwise_weights", "shape": [3, 3, 960, 1], "dtype": "float32", "quantization": {"dtype": "uint8", "min": -7.071233721340404, "scale": 0.07443403917200425, "original_dtype": "float32"}}, {"name": "StatefulPartitionedCall/ssd_mobile_net_v2fpn_keras_feature_extractor/functional_1/block_16_depthwise/depthwise_bn_offset", "shape": [960], "dtype": "float32", "quantization": {"dtype": "uint8", "min": -4.757598876953125, "scale": 0.04664312624463848, "original_dtype": "float32"}}, {"name": "StatefulPartitionedCall/ssd_mobile_net_v2fpn_keras_feature_extractor/functional_1/block_16_project/Conv2D_weights", "shape": [1, 1, 960, 320], "dtype": "float32", "quantization": {"dtype": "uint8", "min": -0.28585511095383587, "scale": 0.002382125924615299, "original_dtype": "float32"}}, {"name": "StatefulPartitionedCall/ssd_mobile_net_v2fpn_keras_feature_extractor/functional_1/block_16_project/Conv2D_bn_offset", "shape": [320], "dtype": "float32", "quantization": {"dtype": "uint8", "min": -4.86075756409589, "scale": 0.03768029119454178, "original_dtype": "float32"}}, {"name": "StatefulPartitionedCall/ssd_mobile_net_v2fpn_keras_feature_extractor/functional_1/Conv_1/Conv2D_weights", "shape": [1, 1, 320, 1280], "dtype": "float32", "quantization": {"dtype": "uint8", "min": -0.3159260548797308, "scale": 0.002411649273891075, "original_dtype": "float32"}}, {"name": "StatefulPartitionedCall/ssd_mobile_net_v2fpn_keras_feature_extractor/functional_1/Conv_1/Conv2D_bn_offset", "shape": [1280], "dtype": "float32", "quantization": {"dtype": "uint8", "min": -4.887112617492676, "scale": 0.005397946226830576, "original_dtype": "float32"}}, {"name": "StatefulPartitionedCall/WeightSharedConvolutionalBoxPredictor/PredictionTower/conv2d_0/separable_conv2d_2_weights", "shape": [1, 1, 128, 128], "dtype": "float32", "quantization": {"dtype": "uint8", "min": -0.1952024359329074, "scale": 0.0015616194874632592, "original_dtype": "float32"}}, {"name": "StatefulPartitionedCall/WeightSharedConvolutionalBoxPredictor/PredictionTower/conv2d_0/separable_conv2d_2_bn_offset", "shape": [128], "dtype": "float32", "quantization": {"dtype": "uint8", "min": -0.5881354970090529, "scale": 0.006760178126540838, "original_dtype": "float32"}}, {"name": "StatefulPartitionedCall/ssd_mobile_net_v2fpn_keras_feature_extractor/bottom_up_Conv2d_20_depthwise_conv/separable_conv2d_weights", "shape": [1, 1, 128, 128], "dtype": "float32", "quantization": {"dtype": "uint8", "min": -0.27790206951253554, "scale": 0.002277885815676521, "original_dtype": "float32"}}, {"name": "StatefulPartitionedCall/ssd_mobile_net_v2fpn_keras_feature_extractor/bottom_up_Conv2d_20_depthwise_conv/separable_conv2d_bn_offset", "shape": [128], "dtype": "float32", "quantization": {"dtype": "uint8", "min": -0.5811793705996345, "scale": 0.00842288942898021, "original_dtype": "float32"}}, {"name": "StatefulPartitionedCall/ssd_mobile_net_v2fpn_keras_feature_extractor/FeatureMaps/top_down/smoothing_2_depthwise_conv/separable_conv2d_weights", "shape": [1, 1, 128, 128], "dtype": "float32", "quantization": {"dtype": "uint8", "min": -0.2602847183451933, "scale": 0.0021690393195432775, "original_dtype": "float32"}}, {"name": "StatefulPartitionedCall/ssd_mobile_net_v2fpn_keras_feature_extractor/FeatureMaps/top_down/smoothing_2_depthwise_conv/separable_conv2d_bn_offset", "shape": [128], "dtype": "float32", "quantization": {"dtype": "uint8", "min": -0.6526564074497597, "scale": 0.00741655008465636, "original_dtype": "float32"}}, {"name": "StatefulPartitionedCall/WeightSharedConvolutionalBoxPredictor/PredictionTower/conv2d_1/separable_conv2d_2_weights", "shape": [1, 1, 128, 128], "dtype": "float32", "quantization": {"dtype": "uint8", "min": -0.8505472615653393, "scale": 0.006697222532010546, "original_dtype": "float32"}}, {"name": "StatefulPartitionedCall/WeightSharedConvolutionalBoxPredictor/PredictionTower/conv2d_1/separable_conv2d_2_bn_offset", "shape": [128], "dtype": "float32", "quantization": {"dtype": "uint8", "min": -1.040651712698095, "scale": 0.01051163346159692, "original_dtype": "float32"}}, {"name": "StatefulPartitionedCall/WeightSharedConvolutionalBoxPredictor/PredictionTower/conv2d_0/separable_conv2d_3_weights", "shape": [1, 1, 128, 128], "dtype": "float32", "quantization": {"dtype": "uint8", "min": -1.2724012038286994, "scale": 0.010261300030876608, "original_dtype": "float32"}}, {"name": "StatefulPartitionedCall/WeightSharedConvolutionalBoxPredictor/PredictionTower/conv2d_0/separable_conv2d_3_bn_offset", "shape": [128], "dtype": "float32", "quantization": {"dtype": "uint8", "min": -2.071486150517183, "scale": 0.014286111382877125, "original_dtype": "float32"}}, {"name": "StatefulPartitionedCall/ssd_mobile_net_v2fpn_keras_feature_extractor/bottom_up_Conv2d_21_depthwise_conv/separable_conv2d_weights", "shape": [1, 1, 128, 128], "dtype": "float32", "quantization": {"dtype": "uint8", "min": -3.001642577788409, "scale": 0.024013140622307274, "original_dtype": "float32"}}, {"name": "StatefulPartitionedCall/ssd_mobile_net_v2fpn_keras_feature_extractor/bottom_up_Conv2d_21_depthwise_conv/separable_conv2d_bn_offset", "shape": [128], "dtype": "float32", "quantization": {"dtype": "uint8", "min": -1.4034637703615076, "scale": 0.0101700273214602, "original_dtype": "float32"}}, {"name": "StatefulPartitionedCall/WeightSharedConvolutionalBoxPredictor/PredictionTower/conv2d_0/separable_conv2d_1_weights", "shape": [1, 1, 128, 128], "dtype": "float32", "quantization": {"dtype": "uint8", "min": -0.6757595132378971, "scale": 0.005775722335366642, "original_dtype": "float32"}}, {"name": "StatefulPartitionedCall/WeightSharedConvolutionalBoxPredictor/PredictionTower/conv2d_0/separable_conv2d_1_bn_offset", "shape": [128], "dtype": "float32", "quantization": {"dtype": "uint8", "min": -1.1554756234673893, "scale": 0.01100452974730847, "original_dtype": "float32"}}, {"name": "StatefulPartitionedCall/WeightSharedConvolutionalBoxPredictor/PredictionTower/conv2d_2/separable_conv2d_2_weights", "shape": [1, 1, 128, 128], "dtype": "float32", "quantization": {"dtype": "uint8", "min": -0.9468288113089168, "scale": 0.008092553942811255, "original_dtype": "float32"}}, {"name": "StatefulPartitionedCall/WeightSharedConvolutionalBoxPredictor/PredictionTower/conv2d_2/separable_conv2d_2_bn_offset", "shape": [128], "dtype": "float32", "quantization": {"dtype": "uint8", "min": -1.2838521882599476, "scale": 0.013235589569690181, "original_dtype": "float32"}}, {"name": "StatefulPartitionedCall/WeightSharedConvolutionalBoxPredictor/PredictionTower/conv2d_1/separable_conv2d_3_weights", "shape": [1, 1, 128, 128], "dtype": "float32", "quantization": {"dtype": "uint8", "min": -0.8499536023420446, "scale": 0.007726850930382224, "original_dtype": "float32"}}, {"name": "StatefulPartitionedCall/WeightSharedConvolutionalBoxPredictor/PredictionTower/conv2d_1/separable_conv2d_3_bn_offset", "shape": [128], "dtype": "float32", "quantization": {"dtype": "uint8", "min": -0.7702565957518185, "scale": 0.009509340688294055, "original_dtype": "float32"}}, {"name": "StatefulPartitionedCall/WeightSharedConvolutionalBoxPredictor/PredictionTower/conv2d_0/separable_conv2d_4_weights", "shape": [1, 1, 128, 128], "dtype": "float32", "quantization": {"dtype": "uint8", "min": -1.9376911135280832, "scale": 0.015378500901016534, "original_dtype": "float32"}}, {"name": "StatefulPartitionedCall/WeightSharedConvolutionalBoxPredictor/PredictionTower/conv2d_0/separable_conv2d_4_bn_offset", "shape": [128], "dtype": "float32", "quantization": {"dtype": "uint8", "min": -1.9434686632717357, "scale": 0.01418590265161851, "original_dtype": "float32"}}, {"name": "StatefulPartitionedCall/ssd_mobile_net_v2fpn_keras_feature_extractor/FeatureMaps/top_down/smoothing_1_depthwise_conv/separable_conv2d_weights", "shape": [1, 1, 128, 128], "dtype": "float32", "quantization": {"dtype": "uint8", "min": -0.843268370628357, "scale": 0.006110640366872152, "original_dtype": "float32"}}, {"name": "StatefulPartitionedCall/ssd_mobile_net_v2fpn_keras_feature_extractor/FeatureMaps/top_down/smoothing_1_depthwise_conv/separable_conv2d_bn_offset", "shape": [128], "dtype": "float32", "quantization": {"dtype": "uint8", "min": -1.1941383586210363, "scale": 0.009256886500938265, "original_dtype": "float32"}}, {"name": "StatefulPartitionedCall/WeightSharedConvolutionalBoxPredictor/PredictionTower/conv2d_1/separable_conv2d_1_weights", "shape": [1, 1, 128, 128], "dtype": "float32", "quantization": {"dtype": "uint8", "min": -0.9387514516419055, "scale": 0.007005607848073922, "original_dtype": "float32"}}, {"name": "StatefulPartitionedCall/WeightSharedConvolutionalBoxPredictor/PredictionTower/conv2d_1/separable_conv2d_1_bn_offset", "shape": [128], "dtype": "float32", "quantization": {"dtype": "uint8", "min": -1.2284195722318163, "scale": 0.011480556749830059, "original_dtype": "float32"}}, {"name": "StatefulPartitionedCall/WeightSharedConvolutionalBoxPredictor/PredictionTower/conv2d_3/separable_conv2d_2_weights", "shape": [1, 1, 128, 128], "dtype": "float32", "quantization": {"dtype": "uint8", "min": -0.67216568367154, "scale": 0.0061105971242867265, "original_dtype": "float32"}}, {"name": "StatefulPartitionedCall/WeightSharedConvolutionalBoxPredictor/PredictionTower/conv2d_3/separable_conv2d_2_bn_offset", "shape": [128], "dtype": "float32", "quantization": {"dtype": "uint8", "min": -0.7933431513169232, "scale": 0.014691539839202282, "original_dtype": "float32"}}, {"name": "StatefulPartitionedCall/WeightSharedConvolutionalBoxPredictor/PredictionTower/conv2d_2/separable_conv2d_3_weights", "shape": [1, 1, 128, 128], "dtype": "float32", "quantization": {"dtype": "uint8", "min": -1.0495488877389945, "scale": 0.008673957749909046, "original_dtype": "float32"}}, {"name": "StatefulPartitionedCall/WeightSharedConvolutionalBoxPredictor/PredictionTower/conv2d_2/separable_conv2d_3_bn_offset", "shape": [128], "dtype": "float32", "quantization": {"dtype": "uint8", "min": -1.4552699743532667, "scale": 0.011928442412731693, "original_dtype": "float32"}}, {"name": "StatefulPartitionedCall/WeightSharedConvolutionalBoxPredictor/PredictionTower/conv2d_1/separable_conv2d_4_weights", "shape": [1, 1, 128, 128], "dtype": "float32", "quantization": {"dtype": "uint8", "min": -1.5128627711651372, "scale": 0.012102902169321098, "original_dtype": "float32"}}, {"name": "StatefulPartitionedCall/WeightSharedConvolutionalBoxPredictor/PredictionTower/conv2d_1/separable_conv2d_4_bn_offset", "shape": [128], "dtype": "float32", "quantization": {"dtype": "uint8", "min": -1.020253924295014, "scale": 0.012914606636645747, "original_dtype": "float32"}}, {"name": "StatefulPartitionedCall/WeightSharedConvolutionalBoxPredictor/PredictionTower/conv2d_0/separable_conv2d_weights", "shape": [1, 1, 128, 128], "dtype": "float32", "quantization": {"dtype": "uint8", "min": -1.275427459268009, "scale": 0.00924222796571021, "original_dtype": "float32"}}, {"name": "StatefulPartitionedCall/WeightSharedConvolutionalBoxPredictor/PredictionTower/conv2d_0/separable_conv2d_bn_offset", "shape": [128], "dtype": "float32", "quantization": {"dtype": "uint8", "min": -1.3924554852878346, "scale": 0.012214521800770478, "original_dtype": "float32"}}, {"name": "StatefulPartitionedCall/WeightSharedConvolutionalBoxPredictor/PredictionTower/conv2d_2/separable_conv2d_1_weights", "shape": [1, 1, 128, 128], "dtype": "float32", "quantization": {"dtype": "uint8", "min": -0.8417003295000861, "scale": 0.007515181513393626, "original_dtype": "float32"}}, {"name": "StatefulPartitionedCall/WeightSharedConvolutionalBoxPredictor/PredictionTower/conv2d_2/separable_conv2d_1_bn_offset", "shape": [128], "dtype": "float32", "quantization": {"dtype": "uint8", "min": -1.097069816495858, "scale": 0.012326627151638854, "original_dtype": "float32"}}, {"name": "StatefulPartitionedCall/WeightSharedConvolutionalBoxPredictor/PredictionTower/conv2d_3/separable_conv2d_3_weights", "shape": [1, 1, 128, 128], "dtype": "float32", "quantization": {"dtype": "uint8", "min": -0.9198282877604167, "scale": 0.006763443292356005, "original_dtype": "float32"}}, {"name": "StatefulPartitionedCall/WeightSharedConvolutionalBoxPredictor/PredictionTower/conv2d_3/separable_conv2d_3_bn_offset", "shape": [128], "dtype": "float32", "quantization": {"dtype": "uint8", "min": -1.104042459936703, "scale": 0.014720566132489373, "original_dtype": "float32"}}, {"name": "StatefulPartitionedCall/WeightSharedConvolutionalBoxPredictor/PredictionTower/conv2d_2/separable_conv2d_4_weights", "shape": [1, 1, 128, 128], "dtype": "float32", "quantization": {"dtype": "uint8", "min": -1.464386420623929, "scale": 0.013434737803889256, "original_dtype": "float32"}}, {"name": "StatefulPartitionedCall/WeightSharedConvolutionalBoxPredictor/PredictionTower/conv2d_2/separable_conv2d_4_bn_offset", "shape": [128], "dtype": "float32", "quantization": {"dtype": "uint8", "min": -1.050196280666426, "scale": 0.011054697691225537, "original_dtype": "float32"}}, {"name": "StatefulPartitionedCall/WeightSharedConvolutionalBoxPredictor/PredictionTower/conv2d_1/separable_conv2d_weights", "shape": [1, 1, 128, 128], "dtype": "float32", "quantization": {"dtype": "uint8", "min": -1.0227309624354044, "scale": 0.007689706484476725, "original_dtype": "float32"}}, {"name": "StatefulPartitionedCall/WeightSharedConvolutionalBoxPredictor/PredictionTower/conv2d_1/separable_conv2d_bn_offset", "shape": [128], "dtype": "float32", "quantization": {"dtype": "uint8", "min": -1.2734501048630358, "scale": 0.012363593251097435, "original_dtype": "float32"}}, {"name": "StatefulPartitionedCall/WeightSharedConvolutionalBoxPredictor/PredictionTower/conv2d_3/separable_conv2d_1_weights", "shape": [1, 1, 128, 128], "dtype": "float32", "quantization": {"dtype": "uint8", "min": -0.5433584498424157, "scale": 0.0049396222712946875, "original_dtype": "float32"}}, {"name": "StatefulPartitionedCall/WeightSharedConvolutionalBoxPredictor/PredictionTower/conv2d_3/separable_conv2d_1_bn_offset", "shape": [128], "dtype": "float32", "quantization": {"dtype": "uint8", "min": -0.5749615276561064, "scale": 0.011978365159502216, "original_dtype": "float32"}}, {"name": "StatefulPartitionedCall/WeightSharedConvolutionalBoxPredictor/PredictionTower/conv2d_3/separable_conv2d_4_weights", "shape": [1, 1, 128, 128], "dtype": "float32", "quantization": {"dtype": "uint8", "min": -1.4722653071085612, "scale": 0.010825480199327655, "original_dtype": "float32"}}, {"name": "StatefulPartitionedCall/WeightSharedConvolutionalBoxPredictor/PredictionTower/conv2d_3/separable_conv2d_4_bn_offset", "shape": [128], "dtype": "float32", "quantization": {"dtype": "uint8", "min": -0.7615004745184206, "scale": 0.011898444914350322, "original_dtype": "float32"}}, {"name": "StatefulPartitionedCall/WeightSharedConvolutionalBoxPredictor/PredictionTower/conv2d_2/separable_conv2d_weights", "shape": [1, 1, 128, 128], "dtype": "float32", "quantization": {"dtype": "uint8", "min": -0.8933512252919813, "scale": 0.008121374775381648, "original_dtype": "float32"}}, {"name": "StatefulPartitionedCall/WeightSharedConvolutionalBoxPredictor/PredictionTower/conv2d_2/separable_conv2d_bn_offset", "shape": [128], "dtype": "float32", "quantization": {"dtype": "uint8", "min": -0.8004094759623209, "scale": 0.01177072758768119, "original_dtype": "float32"}}, {"name": "StatefulPartitionedCall/WeightSharedConvolutionalBoxPredictor/PredictionTower/conv2d_3/separable_conv2d_weights", "shape": [1, 1, 128, 128], "dtype": "float32", "quantization": {"dtype": "uint8", "min": -0.8260218695098279, "scale": 0.006826627020742379, "original_dtype": "float32"}}, {"name": "StatefulPartitionedCall/WeightSharedConvolutionalBoxPredictor/PredictionTower/conv2d_3/separable_conv2d_bn_offset", "shape": [128], "dtype": "float32", "quantization": {"dtype": "uint8", "min": -0.5611792054830813, "scale": 0.012199547945284377, "original_dtype": "float32"}}, {"name": "ConstantFolding/StatefulPartitionedCall/Preprocessor/stack_const_axis", "shape": [], "dtype": "int32"}, {"name": "ConstantFolding/StatefulPartitionedCall/Postprocessor/BatchMultiClassNonMaxSuppression/stack_12_const_axis", "shape": [], "dtype": "int32"}, {"name": "ConstantFolding/StatefulPartitionedCall/Postprocessor/BatchMultiClassNonMaxSuppression/PadOrClipBoxList/Slice_3/size_const_axis", "shape": [], "dtype": "int32"}, {"name": "ConstantFolding/StatefulPartitionedCall/Postprocessor/BatchMultiClassNonMaxSuppression/PadOrClipBoxList/Slice_5/size_const_axis", "shape": [], "dtype": "int32"}, {"name": "ConstantFolding/StatefulPartitionedCall/Postprocessor/BatchMultiClassNonMaxSuppression/PadOrClipBoxList/Slice_1/size_const_axis", "shape": [], "dtype": "int32"}, {"name": "ConstantFolding/StatefulPartitionedCall/Postprocessor/BatchMultiClassNonMaxSuppression/PadOrClipBoxList/stack_3/values_1_const_axis", "shape": [], "dtype": "int32"}, {"name": "ConstantFolding/StatefulPartitionedCall/Postprocessor/BatchMultiClassNonMaxSuppression/PadOrClipBoxList/stack_5/values_1_const_axis", "shape": [], "dtype": "int32"}, {"name": "ConstantFolding/StatefulPartitionedCall/Postprocessor/BatchMultiClassNonMaxSuppression/PadOrClipBoxList/stack_1/values_1_const_axis", "shape": [], "dtype": "int32"}, {"name": "ConstantFolding/StatefulPartitionedCall/Postprocessor/BatchMultiClassNonMaxSuppression/stack_11_const_axis", "shape": [], "dtype": "int32"}, {"name": "ConstantFolding/StatefulPartitionedCall/Postprocessor/BatchMultiClassNonMaxSuppression/stack_6_const_axis", "shape": [], "dtype": "int32"}, {"name": "ConstantFolding/StatefulPartitionedCall/Postprocessor/BatchMultiClassNonMaxSuppression/stack_10_const_axis", "shape": [], "dtype": "int32"}, {"name": "ConstantFolding/StatefulPartitionedCall/Postprocessor/BatchMultiClassNonMaxSuppression/stack_8_const_axis", "shape": [], "dtype": "int32"}, {"name": "ConstantFolding/StatefulPartitionedCall/Postprocessor/BatchMultiClassNonMaxSuppression/stack_7_const_axis", "shape": [], "dtype": "int32"}]}]}